data_analysis/src/models/trained_models/model_u_l64_f35_g39.pth (torch, 114682 bytes, 20 tensors)

0.weight f4 [64, 35]
00000000: bd2e 3dbf 9826 873e 8cc1 1ebe 3996 99be
00000010: b754 2a3e 1a0f 98be 27c7 5ebc e77d 4abe
00000020: 4e6a a5be 0b9f 50be c3ca 8cbe 173c 043f
00000030: 75c7 19be 3b8c 083d 89bb cbbe 2466 0a3e
00000040: a459 43be 2bcb 89be 40c6 88bf 4e24 29be
00000050: 027f 3abe aafc 14bf 7504 18bf 22b4 2abf
00000060: 4cd3 ee3d 6032 b0be c4fc c4bd 0254 443c
00000070: cc92 babd 4d45 a1be d724 8fbe 10d7 603c
00000080: 3603 f03d a870 2bbf d146 873e 2b8e 50be
00000090: e643 8b3e e86a 973d efc7 c6be 8c37 0e3e
000000a0: be51 8dbd 3062 8bbe 6a6e b5be bcf5 163e
000000b0: 50ea 1bbe 495a 96bd 32cc ca3e d084 f7bd
000000c0: bec7 aebd 6c5b 1dbb a54d 81be 3e55 15bf
000000d0: ebeb 75bc c40e 30b9 875c c0be 648c fabe
000000e0: e24d 0abe 9124 adbe ccd0 b8be b9d8 c5be
000000f0: 7363 e6be 3f98 403d 726e dc3e b168 663d
00000100: d352 10bf ba5f 13be 2887 dc3d a6b6 d1bd
00000110: a9b8 e5be 7e40 0c3e cb68 0f3f e935 acbe
00000120: e122 933b c40b e23e 58cb cc3d 02a1 9a3d
00000130: 4c8f 683e fd4d 033f 9c2c 9b3d d0b6 8a3d
00000140: 046f a4bc fd22 f4be fb2f 9f3d 898d 92bd
00000150: e89d c13d 6f40 8d3d f41b c73e b80a e93e
00000160: fbb8 5f3f 4cdf 203f 76e1 bf3e 0293 e43e
00000170: 91df 3a3f 1eaa 2a3f bc92 333e 31b2 c83e
00000180: be0c da3d c2e8 183b 6534 203e 9c69 f43e
00000190: 87a0 e23d 0ac4 1cbe 8850 aa3c 8938 2a3f
000001a0: 51eb b8be 178b 0cbf 3e80 da3e 06aa 3cbe
000001b0: 4263 eabe e26a 543e 64c1 6dbd 0886 37bd
000001c0: 2d88 cfbe 3819 a0be 8886 003e 5047 c3bd
000001d0: ca17 073f f584 843a eadf 4d3e c742 b7be
000001e0: 45c3 f53d ee12 89be 3774 cdbe 1cba 5dbf
000001f0: 253b 03bf 27b0 97be 7233 31bf 7e6a 26bf
00000200: a6b4 eabe 9866 d6bd bbe6 f9be d6df da3d
00000210: 63be 03bd aa55 16be 3b6e 8abe 646b d23b
00000220: 16e7 4fbd 0f85 0cbe d6cd 11bf 08a2 ad3e
00000230: fbe2 8fbe 4a68 dd3d 5ac5 c53d 9fdb 8cbd
00000240: 7821 043e cb35 1f3d 9ecc 693e 993b 5c3e
00000250: 2b77 b8bd 841d da3d 0db1 343e 5fb8 fdbc
00000260: d3cb 193e 8f09 793e b658 ddbd b9e5 9f3e
00000270: 3f79 7b3d 689f 13be 7958 1fbf 4844 1fbe
00000280: 6a85 0e3e 5dd5 f9be 84c0 39be 3408 1cbd
00000290: 4f60 393c c9f4 393d 4cc7 eb3d 83d1 08bf
000002a0: a86b 2b3c 50d7 053e 1720 1b3e 9c95 abbc
000002b0: 88e9 403d fa83 6cbe bc00 d5bd cdc1 2bbf
000002c0: a582 c93e 66b6 a8bd 68b5 07bf ffc8 423e
000002d0: 4efa 2ebe 6b96 97bd a4c7 22bf 5a87 f9bd
000002e0: aa71 72be 378d 84be 9af6 113f 4352 94bd
000002f0: 9cca 033c 740d 5bbe 3545 3a3e c9f5 03bf
00000300: a810 f8bd 93a5 3cbf 98bf 02bf 3914 bfbe
00000310: 9964 cabe 22af 37bf de0b 02bf 4941 57bc
00000320: 2dae fbbe e195 1c3e 7bd0 0c3e ead8 203e
00000330: d68e 04bf a6cc 08bf 8a6a 003e 20a6 0bbe
00000340: 90d7 7cbf d1a8 c03e 5ce0 2cbf 9954 a43e
00000350: 5976 553d 5a33 aebe 2eb1 883d 38a2 3a3d
00000360: 8a40 c5bb e4ce c4bd 21f5 aebe a179 4cbc
00000370: 3865 ac3b ecfa bc3e ed23 4bbc 8149 873d
00000380: 00c8 10be b17f 213e 245b c6bd 2f19 45be
00000390: f403 65bf fb0c 0bbe c374 c9bd 8ae5 c0be
000003a0: af34 f9be 94ce b9be ac52 e8bc 1ba1 a3be
000003b0: f512 f43d 8042 0f3d 6286 053e 9b1d 74be
000003c0: 7b83 c9be 6860 d83c 820d 82bd 7722 27bf
000003d0: f329 673e 982c bbbe 2d60 a6bd bcdd 3d3e
000003e0: 704f 22bd 9d79 a43d 926c d33d b5b8 0f3e
000003f0: 4abe 2dbd b6da d5bd e066 923e 2efe 3e3e
-0.7389944 0.26396632 -0.1550352 -0.29997423 0.16633879 -0.29699022 -0.013597286 -0.1977459
-0.32307667 -0.2037317 -0.27498445 0.5165419 -0.15017493 0.03333686 -0.39791515 0.13515526
-0.19077164 -0.26912817 -1.0685501 -0.16517755 -0.18212512 -0.58198035 -0.593818 -0.6668111
0.116613954 -0.34413433 -0.09618524 0.01198292 -0.091100305 -0.31498185 -0.27957794 0.01372315
0.117193624 -0.66968775 0.26421216 -0.20366733 0.2720024 0.073934376 -0.38824412 0.13888377
-0.06900357 -0.2722335 -0.35435802 0.14742178 -0.15226102 -0.07341439 0.39608914 -0.12085879
-0.085341915 -0.002401079 -0.2525455 -0.58333194 -0.0150098605 -0.00016790169 -0.37570593 -0.48935235
-0.13506272 -0.3381696 -0.360968 -0.3864191 -0.4499775 0.047020193 0.43053013 0.056252185
-0.5637638 -0.14391986 0.107679665 -0.102399155 -0.44867447 0.13696477 0.56019276 -0.3363488
0.004490242 0.441496 0.09999722 0.07550241 0.22710913 0.51290876 0.07576868 0.0677315
-0.020072468 -0.47682944 0.077728234 -0.07155902 0.09453946 0.06897055 0.38888514 0.4551599
0.8739163 0.62840724 0.374767 0.44643408 0.72997385 0.6666583 0.17536443 0.3919845
0.10646962 0.0023332094 0.15644987 0.47736824 0.110657744 -0.15309158 0.020790353 0.66492516
-0.36117032 -0.54899734 0.42675966 -0.18424234 -0.45778853 0.20743898 -0.05804576 -0.044805557
-0.4053358 -0.3126924 0.1255132 -0.09535086 0.52770674 0.0010110425 0.20104948 -0.35793135
0.12000135 -0.26772255 -0.40127727 -0.86612105 -0.5126212 -0.2962658 -0.69219124 -0.65006244
-0.4584095 -0.10468787 -0.48808846 0.106872246 -0.03216399 -0.14681116 -0.27037224 0.0064214934
-0.05075749 -0.13722633 -0.56954706 0.33912683 -0.2810286 0.10810907 0.096567824 -0.06877827
0.12903392 0.03886966 0.22831962 0.2150711 -0.090071045 0.10650161 0.17645665 -0.030971704
0.15019159 0.24320053 -0.10807936 0.31229952 0.061394926 -0.14416277 -0.62244374 -0.15553391
0.13918081 -0.48795596 -0.18139845 -0.03809376 0.011314466 0.04539946 0.11512622 -0.5344469
0.010462679 0.13070416 0.1514896 -0.020945363 0.047097713 -0.2309722 -0.10400531 -0.6709259
0.39357486 -0.08237915 -0.5301118 0.19021986 -0.17087671 -0.07401737 -0.6358588 -0.121840194
-0.23676172 -0.25888988 0.5701691 -0.07242253 0.008043911 -0.2139185 0.18190463 -0.51546913
-0.12112552 -0.73690146 -0.510736 -0.37320116 -0.39529875 -0.71751606 -0.5079936 -0.013138124
-0.49156323 0.1529155 0.13751404 0.15707746 -0.5178045 -0.5343727 0.12540641 -0.1363759
-0.9876642 0.37628797 -0.67529845 0.32095793 0.05211482 -0.34023553 0.06674419 0.04556486
-0.0060196565 -0.09609774 -0.34171394 -0.0124801705 0.0052610897 0.36910188 -0.012398702 0.06605817
-0.14138794 0.15771367 -0.096853524 -0.19247888 -0.89459157 -0.1357917 -0.09836724 -0.37675124
-0.48673007 -0.3629042 -0.028359734 -0.3195885 0.11917678 0.03497553 0.13039544 -0.23839419
-0.39358124 0.026413158 -0.06350233 -0.65286964 0.22574596 -0.3655746 -0.08123813 0.18541616
-0.03962654 0.080310084 0.103234425 0.14035304 -0.042417802 -0.104421064 0.28594112 0.1865165

0.bias f4 [64]
00000000: 0df2 ffbc bb23 19be 9017 1fbe d0d8 b03d
00000010: a298 b2bc 046c 9e3c b3e8 95bd dbd3 d5bc
00000020: 2144 77bd ce7b a2bd 8d32 463d b81b f7bd
00000030: c170 68bd 6c41 b73d ce2f 65bd 1322 b5bd
00000040: 336f 26bd 62a0 92bd 6677 b83d 4b0f 0cbe
00000050: b0fc a13c 111e 3ebe 2494 9a3d 2ffd ac3d
00000060: 4544 4cbe 5ef5 05bd cd6b 1a3d 1ea8 22be
00000070: 896b 30bd f15b bc3d 5fc6 d8bd 6d39 dcbc
00000080: d18a 42bd ebd1 a9bd fda7 ff3c 096b 943d
00000090: 9474 16bd 9c53 8dbc 8d4c 963c e675 b8bc
000000a0: bfd5 eb3c 6451 5f3d 61e6 87bd 36f8 e03d
000000b0: a669 2cbe 9e2e 09be 62c2 d4bd 99f4 053e
000000c0: 9030 803c 2060 b93c d896 b7bd d2ea 4f3e
000000d0: f308 dc3c f763 8b3c b90c f5bd 77a1 00be
000000e0: ade1 8d3d 9e17 0ebe 87dc 613d 898f 09be
000000f0: a7a2 a43d 55d5 3c3b d5a8 4f3c b211 443e
-0.031243348 -0.14955036 -0.15536332 0.08635104 -0.021801297 0.019338615 -0.073197745 -0.026101997
-0.060367707 -0.0793377 0.048388053 -0.12065834 -0.056748156 0.08948025 -0.055953793 -0.0884439
-0.04063339 -0.07159497 0.090071484 -0.13677709 0.019773811 -0.18566157 0.07547787 0.084467284
-0.19947918 -0.032704704 0.037700463 -0.15884444 -0.043071304 0.09197224 -0.10584711 -0.026882851
-0.047495667 -0.08291992 0.031208033 0.07246978 -0.03673227 -0.017251782 0.01834705 -0.022517156
0.028788446 0.05452098 -0.06635738 0.109848425 -0.16837177 -0.1339669 -0.10388638 0.13081588
0.015648156 0.022628844 -0.08964318 0.2030442 0.026859736 0.01701544 -0.11965317 -0.12561594
0.0692781 -0.13876197 0.055141952 -0.1343366 0.08038836 0.002881368 0.01267453 0.19147375

1.weight f4 [32, 64]
00000000: 9c25 0fbe 4fa7 7a3d d1d8 b73d 9df6 83bd
00000010: 2380 23bc ed19 93bd efa8 1bbc c92c f23d
00000020: 0a8c 143d a9cb 29bd 035e 033e 69fa c63c
00000030: 2260 9e3d edbc 0c3d a24a fe3d c69f c23d
00000040: 6488 91bd cd10 993d acd8 cebd abd1 fcbd
00000050: 91d1 a4bc 7a0e a2bb e4c4 bbbc 2e38 07bd
00000060: 193e 35bd a112 14bc 4a42 8fbd 4ade db3c
00000070: b505 b33d e197 acbd f49d bcbd bb68 913d
00000080: 4c00 d7bd 3529 d93d 1d95 bdbd 35ca b3bd
00000090: 95b2 62bd e7d9 323d 3a7c c8bd b8af ecbc
000000a0: 0dc4 18bc ed2c 903d 0da0 7cbd 8d55 b93d
000000b0: 6535 ddbd b1fc 58bd 8808 8cbd 2681 893d
000000c0: 930e 9b3d df8c febd aca2 e03d 12f5 c0bd
000000d0: 4344 a6bc afa4 6e3d 8e8e 383a 3d22 8cbd
000000e0: 435c debc 50e8 52bb 62ff 1fbd 7737 3ebd
000000f0: b55e 3b3d c2e1 c4bd 3138 95bb 8297 af3d
00000100: 772a 86bb 68c4 8c3d c29c c63d 7417 373d
00000110: b37c aebd 1f7a 413d 51e3 a53d 17b9 f33d
00000120: 6fed 11bc ef10 283c 5e08 bdbd eaed 983d
00000130: 6992 933d 6853 283d d7dd f6bd 4fc1 b7bd
00000140: e3b8 10bd 3def cbbd d65a e4bc 06ce c6bd
00000150: e421 373d 1871 86bd 5940 a23d 3577 12bd
00000160: 99c1 e1bd a2f3 e2bc 9f12 9f3d 73f7 ccbd
00000170: 2fa4 c33d d903 223d 146d f2bd a037 15bd
00000180: 48a6 4cbd 60f2 f7bd e62d 1d3d 0c66 cbbd
00000190: 2348 51bd 8998 bfbd 66c3 98bd cc2c ecbd
000001a0: e443 b0bd eeab b8bb 343b 01bd ca1c 923d
000001b0: e5c2 d5bd bfdb e43d 1adc 01be 03bc 123b
000001c0: 2bc5 71bd 6645 b03d 977f 953c 8963 b03d
000001d0: bc07 f63d 1e3e 37bd 7c68 c53d e9ab c93d
000001e0: 2096 7d3c 8f99 523d 3acf d5bd 4ea4 c93c
000001f0: 678d a83d 0a49 243d 92d2 393d 55cf cebb
00000200: 88ee 18ba 46cf 40bd 2738 17be 8b99 78bc
00000210: 1d63 b2bd 4fd7 a3bb 3057 3c3d 5430 bdbd
00000220: 72e5 79bc 837a e5b9 3dd4 2abe aa87 efbd
00000230: 2a66 953d cc82 933d 31ae c73c 64f0 97bd
00000240: 0907 acbd 203b 07bd 18a7 7b3c 594f 9dbd
00000250: 0d45 e5bc 93fc 683d 80fd 64bd fe0d ef3c
00000260: 3b2e f3bd d50f ce3d e011 6e3d 2607 e2bd
00000270: 5711 16bc 4076 bebd 7658 06be 3905 b93c
00000280: b840 1bbd 7dd5 0bbd 917c f6bd cf49 03bd
00000290: 1121 143e 695f dd3d 036e 1fbd 7515 f3bc
000002a0: 96b5 a8bd 2aa9 9cbd 2025 23bd 4bad ce3d
000002b0: 4791 8f3d e2de 8dbd 1d31 ac3d c960 77bd
000002c0: ea18 3dbc ca2f e43c ae74 953d ccf2 9cbd
000002d0: 6793 adbc baf1 86bb 9caa af3d 726d 123d
000002e0: 3c26 bdbc 2298 163d 827b 0bbe 92ca c93c
000002f0: a686 bebd 65b8 073d 261e e5bc 90d0 613c
00000300: 2931 cbbc b5a0 58bd 0cc8 0fbd 4631 df3d
00000310: 3fbc 91bd 5bb5 cc3c 7379 cf3d a845 bf3d
00000320: cda3 32bd b6be 0d3b aaef bf3d e6ec 073e
00000330: c3a7 71bd 52b4 8b3d 0df7 cdbd ff8c 413d
00000340: 1032 99bb caa4 16bd 41b8 83bd 1f18 963d
00000350: 6a90 9a3d 40fe 86bd 46a0 993c ea43 073e
00000360: 8623 77bd 9b66 c6bd 2fc4 ca3d a333 cc3d
00000370: 6d24 1cbd d2e3 e23d 8ab4 543d 1506 92bb
00000380: 99cf 943d 5485 b03d 5de9 bbbd af72 e3bd
00000390: 524a ecbd edb4 e6bd 21f7 533d acfa b1bd
000003a0: 9893 62bd aaef 98bd e922 0dbe 1931 d9bd
000003b0: c9ce 903d 62f0 02bd fb76 463d f2b3 313b
000003c0: 330a 8d3d cfee 65bc 46da c7bd 1dce 843d
000003d0: a191 a5bd 5482 b63c 8823 efbd a705 d23c
000003e0: ed38 903d 9750 ccbc 4640 febd fd10 98bd
000003f0: 64d6 003e 74e1 163b 437d 8ebd f2b1 d63d
-0.1397919 0.061194714 0.08976901 -0.06443522 -0.009979281 -0.07182679 -0.009500726 0.11824948
0.036266364 -0.04145399 0.12828831 0.024289327 0.0773318 0.03435986 0.12416579 0.095031306
-0.071060926 0.074739076 -0.10099921 -0.123446785 -0.02011946 -0.0049455734 -0.022921033 -0.03301256
-0.044248674 -0.009037645 -0.069950655 0.026839394 0.08741323 -0.08427406 -0.09209815 0.07100054
-0.104981035 0.10603563 -0.09256957 -0.08778802 -0.05534609 0.04366484 -0.09789319 -0.028892383
-0.009324086 0.07039819 -0.061676074 0.09049521 -0.108012 -0.05297536 -0.06837565 0.06714086
0.07571139 -0.12429213 0.10968527 -0.094217435 -0.020296222 0.058262523 0.0007040285 -0.06842468
-0.027143603 -0.0032181926 -0.03906191 -0.046439614 0.045744617 -0.096133724 -0.0045538177 0.0857382
-0.0040944177 0.06873399 0.09697868 0.0447001 -0.08519878 0.047235604 0.08099998 0.119005375
-0.008906706 0.0102579435 -0.092301115 0.074672535 0.0720566 0.041095167 -0.12054031 -0.089724176
-0.03533257 -0.099577405 -0.027875345 -0.097072646 0.044710055 -0.0656454 0.079224296 -0.035758216
-0.11023254 -0.027704064 0.077672236 -0.10008135 0.095528 0.03955445 -0.11837211 -0.03643
-0.049963266 -0.12106776 0.03837385 -0.09931573 -0.051094186 -0.09355266 -0.07459144 -0.11531982
-0.08606699 -0.00563573 -0.0315506 0.07134397 -0.10437564 0.11174726 -0.12681618 0.0022389896
-0.059025925 0.08606987 0.018249316 0.08612735 0.12013194 -0.044736974 0.096390694 0.098472424
0.015477687 0.051415976 -0.10439916 0.02461448 0.08230095 0.040108718 0.04536683 -0.006311337
-0.0005833884 -0.04707267 -0.14767514 -0.015173326 -0.087103106 -0.005000032 0.045981586 -0.092377335
-0.015252458 -0.00043769562 -0.16682525 -0.11695798 0.07294877 0.07202682 0.024375053 -0.07418898
-0.08399779 -0.03301537 0.0153596625 -0.0768115 -0.027987028 0.0568815 -0.05590582 0.029181477
-0.11874052 0.100616135 0.058122516 -0.1103652 -0.009159408 -0.09299898 -0.13119683 0.022585498
-0.037903517 -0.034139145 -0.12035478 -0.03205281 0.14465739 0.10809214 -0.038923275 -0.029673317
-0.0823776 -0.07649453 -0.039830327 0.10091647 0.07010131 -0.06927277 0.08407805 -0.060395036
-0.0115415845 0.027854819 0.072976455 -0.07663497 -0.021188451 -0.0041181715 0.08577463 0.035748906
-0.02308952 0.03676618 -0.13621333 0.024632726 -0.09303026 0.033134837 -0.027968477 0.013782635
-0.024803715 -0.052887637 -0.03510289 0.1089807 -0.07115983 0.02498882 0.101305865 0.09339458
-0.043613244 0.0021628565 0.09371884 0.13273963 -0.05899788 0.06821503 -0.10056887 0.047253605
-0.0046751574 -0.03677825 -0.06431628 0.073288195 0.07547076 -0.06591463 0.018753182 0.13209501
-0.060336612 -0.09687539 0.099007 0.099707864 -0.038120676 0.110786095 0.051929988 -0.0044562914
0.072661586 0.0861918 -0.0917537 -0.111058585 -0.11537613 -0.112649776 0.051749352 -0.0869039
-0.055316538 -0.07467587 -0.13782848 -0.10605068 0.07070691 -0.03196753 0.048453312 0.0027115312
0.06886711 -0.014033987 -0.09758429 0.064846255 -0.08084417 0.022278942 -0.11676699 0.02563746
0.07042108 -0.024940772 -0.12414603 -0.07425115 0.12581784 0.0023022564 -0.069574855 0.10483159

1.bias f4 [32]
00000000: 558e 1abd 14a5 d83d c726 4a3d 456a 9e3d
00000010: 3ee4 b3bd 624a 1b3c 4441 a4bc 3580 953d
00000020: 9798 f6bd a0b1 e3bc c76d bb3d ccea 15be
00000030: b55b c23d 6f09 a1bd a684 e9bc 2184 e5bc
00000040: 5601 cf3c 81be 4bbd 164f a53d 7723 013e
00000050: 2643 a4bd 1352 3fbd ee49 33bd c4b2 263c
00000060: 569f 2bbe 1f21 c73d b28e ffbd e7af 47bd
00000070: a362 b7bd 7689 0ebe 34c4 15be 8c2a b5bd
-0.037733395 0.10578361 0.049353387 0.07735113 -0.08783768 0.009478183 -0.020050652 0.07299844
-0.12040823 -0.02779466 0.09151798 -0.14640349 0.09490148 -0.078631274 -0.028505635 -0.028017106
0.025269192 -0.049742226 0.08071725 0.12611185 -0.0802062 -0.04670913 -0.043771677 0.010174457
-0.1676 0.09723114 -0.12478389 -0.048751738 -0.0895436 -0.13919625 -0.14625627 -0.08846006

3.weight f4 [16, 32]
00000000: 5013 093e 82b3 8239 675b 9f3d dc0f 6e3d
00000010: b842 4dbd e5e5 80bd da2e 58be d265 cb3c
00000020: 6647 943c d8ad 37be 2882 153e 046f a8bd
00000030: 9a86 35bc 4b4d 22bd 9ded a6bd da88 f93d
00000040: a2ba 263e ca3c 25be a803 0ebe 36bb 2e3e
00000050: c35d 31bd b4b0 773c 4314 2dbc 5803 d83d
00000060: 6e16 a9bd 0cb8 25be 56d5 cebd 6fee 06be
00000070: 4f17 25be 40d5 30be 7728 d33d 2684 0ebd
00000080: 9885 62bc 2c1e d8bc e496 c43d f1ec 3b3e
00000090: e0c2 4b3d bde5 343e c26c 26bd 39c9 023e
000000a0: 0757 bcbd 9621 ffbd 0b97 16bd c3a2 19be
000000b0: 3b23 72bd 42c6 193d 25dd b1bd abdf b7bd
000000c0: f958 0cbe e856 dfbc 9d05 733d d0da b23c
000000d0: d66a 49be b7b3 143e ba3f 753d 7db7 b2bd
000000e0: ea22 25be a1a4 8b3d a42e 2abd f7e9 19be
000000f0: c6b2 293c a294 eabc bcdd 7dbd a44c 69bd
00000100: e5f2 51be 86e1 07bc d1d1 693d a2e8 b63d
00000110: e19d a83d b711 e23d b1c6 b33d 5e1b 0bbd
00000120: 8dad 22bd 600f 4e3d 3c8e e8bc 3201 2c3d
00000130: feab 01bc d544 f43d 8788 2b3e 0e62 3abd
00000140: 5e5a 35be 84fc e2bc 8bbf b4bc 797c 18be
00000150: 7b9c 7a3c c7e2 273e fdad 373d 0aa3 84be
00000160: fc64 3f3d 6105 cb3d c61c c53d 540a a8bd
00000170: 5579 053e 9c29 32be eff0 17be d6b3 05be
00000180: c93a 5e3c 9919 483e 91b8 8c3d 6e80 a6bd
00000190: 7b2c 46be 37a8 0a3e 2bbd 1b3d 1fc2 56bd
000001a0: 1c71 6bbd e1b7 89bd e634 4f3e 391d 02bc
000001b0: f228 d73d 51e8 393e a33a 8d3d 481b dd3d
000001c0: 3570 07bd 84d1 aebd d2c4 bbbd dc9b ecbd
000001d0: 2314 d83d c1ab 10be ccbd f83d 5c9b 963d
000001e0: f3d2 333e 8ee2 d6bd a760 cf3b 850d 9bbd
000001f0: 14ef 263e c116 16be 147f 0ebe 2ae0 ffbd
00000200: 0139 d13d d744 a4bc 7bc0 403e 1de5 c8bd
00000210: 9f8b 033d 701f 033d 36fe de3d 120a 18be
00000220: 782c ca3d babc a73c 945f 913d 8b1b 133e
00000230: 2bcc 443e 64fe 1d3e 62be 19be ab73 e4bd
00000240: 5cc8 80bd 2126 18be a3de 06be 5226 133e
00000250: 9204 b4bd 5477 a1bd d540 f53d 09e6 8f3d
00000260: 20d1 b7bc 7934 103e 2c59 abbd 533e b0bd
00000270: caf0 183e a9af ac3d 70f7 473d db04 1e3e
00000280: 8fe2 3a3e 7b26 2c3e 69dd dabd 5407 233e
00000290: dfdd f2bd afc3 efbd 5a4b 193e 6747 c73c
000002a0: b26a 373e 609c 253e b157 5bbd 236f dd3d
000002b0: 9ee2 0fbe 2962 4dbe 7a75 1b3e 5dae 5cbd
000002c0: 2c30 abbd 7c72 14be d7f4 a4bd 5114 e43c
000002d0: 39f3 ec3d db51 dc3b 8fc4 ebbd 2e71 b03d
000002e0: c98a 98bd 9184 8e3d 250f 003e 0e8e 9ebd
000002f0: 3b39 af3d 09ee 963d 716f f83c 9086 203e
00000300: 6600 1f3e d7b0 aebc cee3 023e 5b91 66bd
00000310: d9ed ee3c 22d0 10be 58f7 14be a31f 80bd
00000320: eae6 92bc 84f9 ea3d 764a 35bd 9f7b a03d
00000330: 7838 bc3c 3354 edbd 9a5c b53d 0768 a1bd
00000340: 546e 9b3b f888 203d 3863 203e f450 03be
00000350: 1112 4bbd 908d debd cfe0 243e a9e7 d23d
00000360: 5ef8 f9bd e17a dabc 766e d43c 2569 24bd
00000370: c3d7 003d 94d0 27be ec8a 5abd ef1d 8cbd
00000380: 2c26 0ebe ac92 fd3c 8ff3 11be 9758 f33d
00000390: 9032 883d fb2d c2bd ff2e 163d dca8 273d
000003a0: 2ac4 44bc 2b80 9fbd 6d47 00be 7892 a8bd
000003b0: 2e64 1abd d3a7 2abe b024 82bc c98e be3d
000003c0: fb6f d13d 321c e6bc e608 f9bd f54c 243e
000003d0: 2407 f7bd 607c 8dbd 6aac bcbd 9786 94bc
000003e0: fb1b 1d3e 509b 03be bb23 b33d 0339 f9bc
000003f0: 0e2e a8bd edde c4bd d0f2 b63d 149b b9bd
0.13386273 0.00024929276 0.077811055 0.058120593 -0.050112456 -0.06293849 -0.21111622 0.024828825
0.018100452 -0.1793741 0.14600432 -0.082242996 -0.011079455 -0.039624494 -0.0815079 0.121843055
0.16282132 -0.1613647 -0.13868582 0.17063603 -0.04330231 0.015117813 -0.010563913 0.10547513
-0.08256231 -0.1618349 -0.10099284 -0.13176893 -0.16122173 -0.17268848 0.103104524 -0.034793995
-0.013825797 -0.026381575 0.095990926 0.18352105 0.049746394 0.17665763 -0.040631063 0.12772073
-0.09196287 -0.12457578 -0.03676514 -0.15003495 -0.05911563 0.03754259 -0.08684758 -0.08978208
-0.13705815 -0.02726312 0.059331525 0.021832854 -0.19669661 0.14521681 0.059875228 -0.08726404
-0.161266 0.0681851 -0.041548386 -0.15030657 0.010357564 -0.028635327 -0.06197904 -0.056957856
-0.20502813 -0.008293515 0.057084862 0.0893109 0.08233238 0.11038535 0.08778132 -0.033961646
-0.039716292 0.05030763 -0.028388135 0.041993327 -0.007914541 0.11927191 0.167513 -0.04550367
-0.17710254 -0.0277083 -0.022063991 -0.14891233 0.015296097 0.16395102 0.044843663 -0.2590564
0.046727166 0.09913135 0.09624629 -0.08205095 0.13034566 -0.17398685 -0.14838003 -0.13056883
0.01356382 0.19541015 0.06871141 -0.08129965 -0.19352905 0.13540731 0.0380222 -0.052431222
-0.057480916 -0.06724525 0.20235023 -0.007941538 0.105058566 0.18155028 0.0689595 0.10796219
-0.033065993 -0.08536056 -0.091684 -0.11553165 0.10550716 -0.14128019 0.12145576 0.07353851
0.1756094 -0.104924306 0.0063286605 -0.07570938 0.16302139 -0.14657117 -0.13915664 -0.12493928
0.10215951 -0.020052357 0.18823425 -0.09809325 0.032115575 0.032012403 0.10888331 -0.14847592
0.09871763 0.020475734 0.07098308 0.14365976 0.19218509 0.15429074 -0.15014032 -0.111548744
-0.062882155 -0.14858295 -0.13170867 0.14370087 -0.08789934 -0.07884088 0.11975256 0.070262976
-0.022438586 0.14082517 -0.083666176 -0.086056374 0.14935604 0.08431942 0.04881996 0.1543154
0.18250488 0.16811554 -0.10686762 0.15920764 -0.11858725 -0.117072456 0.1497015 0.02432604
0.17911795 0.16172934 -0.053550426 0.10812213 -0.14051291 -0.20056976 0.15181533 -0.053877223
-0.083587974 -0.14496797 -0.08054512 0.027841719 0.115698285 0.006723625 -0.115121 0.08615337
-0.07448346 0.06958879 0.12505777 -0.077419385 0.08555838 0.0736962 0.030326577 0.15676332
0.15527496 -0.021324558 0.12782213 -0.056290966 0.029166149 -0.14141896 -0.14547479 -0.06256034
-0.017932374 0.114733726 -0.044260465 0.07836079 0.022976145 -0.11588325 0.08855553 -0.0788117
0.0047433767 0.039193124 0.15662849 -0.1282385 -0.049577776 -0.10866845 0.16101383 0.10298092
-0.122055754 -0.026669921 0.025931578 -0.040139336 0.031455766 -0.1638816 -0.053355142 -0.06841647
-0.13881749 0.030953728 -0.14253066 0.118821315 0.06650269 -0.09481426 0.036665913 0.04093252
-0.01200966 -0.07788118 -0.12527247 -0.08231062 -0.037693195 -0.16665582 -0.015886635 0.09304578
0.10226437 -0.028089616 -0.121599 0.16044982 -0.12061909 -0.06908488 -0.09212573 -0.018130584
0.15342705 -0.12852216 0.087470494 -0.030422693 -0.08211909 -0.09612832 0.089330316 -0.09062782

3.bias f4 [16]
00000000: 1bab ad3d 14b2 4c3d 28b2 8dbc 942f 003e
00000010: 1928 3f3d e001 593e 7e06 9a3d c434 8bbd
00000020: bf89 833d ac49 c6bd 8a87 e3bc 4bfe 24be
00000030: f6b3 d63d cac5 56be 09ef 463e 1841 083e
0.084799014 0.049974516 -0.017296866 0.1251815 0.0466691 0.21192122 0.075207695 -0.067971736
0.06422757 -0.096820205 -0.027774591 -0.1611263 0.104835436 -0.20973888 0.19427122 0.13306081

5.weight f4 [8, 16]
00000000: 7c3d 0d3e 108a d2bd dfea bc3d 20ce 13be
00000010: aafe bc3d 63d4 1dbd 0f68 c3bd 5d9a 21be
00000020: 1fed 79be a139 f4bd 4ee8 43be 2c3c e2bd
00000030: 0a06 2e3e 19f4 023d d86b 9f3d 9c5d c9bb
00000040: a2e6 4f3e 06f8 3c3e 29a0 dd3d bd0a 7a3e
00000050: 5eca 5a3d 68ae ea3c 3003 403e e6c4 72be
00000060: e889 91bc 098d 87be 4528 2f3e 5d93 90be
00000070: d51e 66be d59d 033e 6c4a 593d d944 77be
00000080: 587f 64be 9510 10be 7e66 79bd 1a93 febd
00000090: c277 2d3e d3e8 97be cce1 31bd 79a5 b23d
000000a0: 2407 43bd 98b7 613e 2517 bebd 2b09 c43d
000000b0: 1453 86bd 1daa 743e 1365 07be 2a94 803d
000000c0: e866 28be 074f 583e 1060 a2be 3bc0 e33d
000000d0: efd9 533e 2a4c 81be 2936 0abe e8c8 423e
000000e0: ba8e 383e 8ede 043c bfdf 0b3e ec2c 043e
000000f0: 9b8e 29be ba06 4cbe 6e27 71be 6d69 233e
00000100: e072 4dbe 4445 67be 6837 bbbd 0cb6 2ebd
00000110: 74b0 39be 0c34 b83d 9cc7 883c 1444 eabc
00000120: 5856 6dbe dead 19be dc64 14bc cc5c d4bd
00000130: c2ba 41be 64f2 54be d093 a53d 8c59 8e3c
00000140: d576 833d 4a97 bbbd 2154 d4bd d4d7 5bbd
00000150: 7727 8ebd 14f7 9a3d 1777 b43d b5d6 8bbd
00000160: aef9 a6bd 7c34 1dbe 3a5b acbd a120 263d
00000170: bde0 94bc 9430 27be 5cb2 b2bd 0d59 523e
00000180: debd 423e be5b f73d 095b 26bd 3723 d73d
00000190: a49b 74be 6cfe 64be 8f95 9b3a 95b9 4f3e
000001a0: 9dca 033d 3af4 a93d 5741 7d3d 8ec0 68be
000001b0: f750 dcbd 3cc8 873d 21c5 e63d 8fd0 36bd
000001c0: 72f2 413e bb08 a93d 31ac a8bd 277d 2abe
000001d0: 37c9 1f3d e3a8 2b3e 5673 1dbd e18e 76be
000001e0: 47ab 9c3c a3de 673e 56b1 81be ccee 1f3e
000001f0: dc30 72be 4128 d3bc 0eb3 73be b10f 723e
0.13792986 -0.102802396 0.092244856 -0.14434099 0.09228261 -0.038532626 -0.09541332 -0.15781541
-0.24406861 -0.11925054 -0.19131586 -0.11046633 0.16994491 0.03197107 0.077842414 -0.0061451923
0.20302823 0.18453988 0.10821564 0.24418159 0.05341565 0.028647617 0.18751216 -0.23707923
-0.017765954 -0.2647479 0.17105205 -0.2823743 -0.22472699 0.12853177 0.05304949 -0.24147357
-0.22314203 -0.14068826 -0.06088876 -0.12430401 0.16940215 -0.29669818 -0.043428227 0.08722968
-0.04761423 0.22042692 -0.09281758 0.09572061 -0.06558815 0.23893018 -0.1322215 0.0627826
-0.16445506 0.21123897 -0.31713915 0.111206494 0.20688604 -0.2525342 -0.13497223 0.19021952
0.18023196 0.008109702 0.13659571 0.12907761 -0.16558306 -0.19924441 -0.23550197 0.15958185
-0.20063353 -0.22585016 -0.09141427 -0.042654082 -0.18133718 0.08994302 0.016696744 -0.028596915
-0.23177469 -0.15007731 -0.00905725 -0.10369262 -0.18918899 -0.2079559 0.080848336 0.017376684
0.0641915 -0.091597155 -0.10367609 -0.053672627 -0.06941121 0.07566658 0.08811777 -0.068280615
-0.08153091 -0.15352052 -0.084158376 0.04055846 -0.01817357 -0.16327125 -0.087254256 0.20541783
0.19017741 0.12078045 -0.04061416 0.105047636 -0.23887497 -0.22362679 0.0011870133 0.20285638
0.03217565 0.08298536 0.06182989 -0.22729704 -0.1075763 0.066299886 0.11268068 -0.04463249
0.18940142 0.08253618 -0.08235968 -0.16649304 0.039010253 0.16763644 -0.03844007 -0.24077941
0.01912464 0.22643523 -0.2533061 0.15618438 -0.23651451 -0.02577603 -0.23798773 0.23638798

5.bias f4 [8]
00000000: cf3e fa3c 9eb7 873d 0fe9 33bd d84c 27bd
00000010: d8df 5fbd 0457 8a3e 9e9a 67be 457c 19be
0.030547528 0.06626819 -0.043923434 -0.04084477 -0.054656833 0.27019513 -0.22617576 -0.14988811

7.weight f4 [16, 8]
00000000: 154e 55bc 29f1 1c3e 99b8 903e 7257 773e
00000010: 00a1 043e 3680 9a3e 1673 52be bf2f c13c
00000020: b1c7 b33e 7e98 8a3d 89cc 333e 850b 8b3d
00000030: dff1 903e 93ac 643d 72b2 06be e3d8 b0be
00000040: 6ec7 d53d e7bd e23d 9842 b0be 6108 8d3e
00000050: d1d0 3cbe a3f1 dabd 5a98 453b d7ac b8bd
00000060: 2c53 b4be 03fb 7e3e b884 b03e 1eb6 1fbd
00000070: 2af0 99be 5f9b 7a3e ae19 2b3e b3d7 2e3e
00000080: 24d7 843e 360b f9bd 52bf 773d d5e0 b5be
00000090: 9644 fcbd c82d 183e 93ca cbbd f009 613d
000000a0: 01e9 37bd 6abf 6bbe f5cb b1be 26ef acbe
000000b0: a926 1bbe ced4 463e ccf7 943d 3b79 9fbe
000000c0: ad02 333e 2dbd f1bc 0699 a1be 7085 9a3e
000000d0: fc1e 85bc fc3d 9ebe 01d3 873c 0c4d 833e
000000e0: b90a f03c 10fd 893e c619 05be b38a 303e
000000f0: aa64 703e 27dd c43d 2bdd 43be 1497 b8bd
00000100: a3fb 603d d440 75be d955 85be 1c04 003d
00000110: 3cd7 8a3c ef92 6abe a132 113e bf96 92be
00000120: 3361 323d 6093 48be d79a 2d3e 15d7 92be
00000130: 06fb 683e 6262 823e 9192 7abe ce80 61be
00000140: b3b8 95be f12e 6abe 52ea 513e 343e c83d
00000150: f1fc 97be f8e8 4fbe 1e94 fd3d 5664 bcbe
00000160: 63fb 38be 5cda 8dbe d1a3 003d 49ac 0a3e
00000170: 897e 9dbe 16ea b23c 0660 813e b78f 6a3e
00000180: 4fb6 003e 6e42 9dbd 6d0f 873e b742 9e3e
00000190: 27c9 88be a1a6 5abe 5562 b4bd c7ff 97be
000001a0: c5db a9be 74c7 813e deef 803e 0e92 c5be
000001b0: ea75 263e b955 b93e 5e56 2abe 1392 9c3e
000001c0: fd3b 78be 4396 9e3e ff52 adbd 58ef c4bd
000001d0: 081f 563d 803b 183e 3559 80be 3705 b3be
000001e0: 5b1c 983e d6cc 82bd e640 8dbe 49b6 a0be
000001f0: a01f bc3c 8bea 4f3e d42e c43c 7bb1 6f3e
-0.0130191045 0.1532637 0.28265837 0.24154451 0.12952042 0.30175942 -0.20551714 0.023582337
0.3511329 0.06767367 0.17558493 0.067893066 0.28309533 0.055828642 -0.13154009 -0.3454047
0.10438429 0.11071377 -0.34425807 0.27545455 -0.18439032 -0.1069062 0.0030150623 -0.090173416
-0.35219705 0.24900441 0.34476256 -0.03899204 -0.30066043 0.24473332 0.16709015 0.1707447
0.2594539 -0.121603414 0.06048519 -0.35523096 -0.12317769 0.14861214 -0.09950747 0.054941118
-0.044899944 -0.23022237 -0.3472592 -0.33776206 -0.15151466 0.19417116 0.07273826 -0.3114718
0.1748149 -0.029509151 -0.3156206 0.3017993 -0.016250126 -0.30906665 0.016580107 0.2564472
0.029301988 0.26950884 -0.12998113 0.1724041 0.234759 0.09612494 -0.19127338 -0.09013191
0.05492748 -0.23950511 -0.2604206 0.03125392 0.016948335 -0.22907613 0.1417947 -0.28630635
0.043549728 -0.19587469 0.16953598 -0.2867972 0.22752008 0.25465685 -0.24469973 -0.22021791
-0.29242477 -0.22869469 0.20499542 0.09777489 -0.29685166 -0.20303714 0.12381767 -0.367953
-0.18064646 -0.27705657 0.031406227 0.13542284 -0.307606 0.021840136 0.25268573 0.22906385
0.12569545 -0.07678686 0.26378956 0.30910274 -0.26715967 -0.21352626 -0.08807818 -0.2968733
-0.33175483 0.25347483 0.25183004 -0.38587993 0.16255918 0.36198214 -0.16634509 0.30580196
-0.24241634 0.30974016 -0.08463096 -0.09615964 0.052275687 0.14866447 -0.2506806 -0.34964916
0.29709134 -0.063867256 -0.27588576 -0.31389073 0.022964299 0.20304315 0.02394811 0.23407547

7.bias f4 [16]
00000000: 8ff0 0abe 3a63 07be c8de a2be 6831 b23e
00000010: 6dc9 65be 678c dd3d 5242 b53e 7d96 7cbe
00000020: 00a5 6d3e e7e1 edbd f7a2 9dbd d9c9 bebd
00000030: 4b29 7d3e 8947 ac3d 16dc 023f 7ce8 823e
-0.13568328 -0.13221446 -0.31810594 0.3480332 -0.22440119 0.10817795 0.3540216 -0.24666782
0.23207474 -0.11615353 -0.07697099 -0.09315843 0.24722783 0.08412082 0.51117074 0.25567997

9.weight f4 [32, 16]
00000000: 2c54 643e 6be7 3cbd 6706 4dbe 19ac 483d
00000010: c896 7bbe 4609 bc3d 99ed bc3a 3d81 06be
00000020: c432 5fbe 7e8c 43be 6b80 6d3d a2c3 313e
00000030: ef17 26be d6ea 26be c897 43bd 3221 063e
00000040: 7d33 14be 0573 9e3e 4cca 093e 3738 ef39
00000050: c3ac b83d 7b55 7a3e edd6 71bd c8f2 7c3e
00000060: f51d 883c 2baa 37be 0349 273a 58de 64be
00000070: 9460 553e 29a3 8cbd 2660 64bb b52b 803d
00000080: 5f81 0c3e 6fd6 5c3e ffbe 5dbe 4a3f a93d
00000090: 2a71 22be aa0e ad3d 89c2 a3be c44e 7ebd
000000a0: 0a1a 623e 94cb 883d b987 57be b9ee 743e
000000b0: a4a0 373d 3fdc 25be 19d5 f53d c96a 713e
000000c0: 0be0 16bd fd8c 853d 0fb0 713e 6162 03be
000000d0: 83d1 6e3d 2676 3cbe b22c 9cbd a27a a33d
000000e0: 4fa1 7b3e ce9c 1d3e 4d31 e8bd 820d 143e
000000f0: 9af1 2ebe 7b6a 493e d2e1 e33d 3197 5b3e
00000100: c32d b33c c406 58be 96d3 ffbd 5db0 0f3e
00000110: 47a5 11be bde2 e3bc 823e 66be 2a1e b8bd
00000120: 5663 7fbe 1ad0 44bd 1e35 553e 67f9 e9bc
00000130: d42e 10bf 74da 8d3e 29b5 6d3e d112 01be
00000140: 87df 6ebb e6c4 50bd d425 f23d 709f 77be
00000150: ee64 54be 7c41 3fbe c86a ff3d 1f73 46be
00000160: f637 c53c b276 0a3d a1d6 1abe aaf3 19bd
00000170: b507 963d fdfd 403d 33d1 64bd eb62 d83d
00000180: 88ed 5bbe 9c7b 0ebc 2899 3d3e 448d 2ebe
00000190: 7d4f 18be 1488 eabc 6f83 ac3d 4a4b 28be
000001a0: f04a f83d e4a9 993d 42aa 34be 710a 6bbc
000001b0: a456 35be efcc 663e 31eb 653d 5880 67be
000001c0: bf30 9a3d 094d 373e adf9 cd3d 864d 38be
000001d0: a01e 173e b676 c33c 8368 19bd 3ff0 983d
000001e0: c93f 803d 3efd 8ebd d015 bd3d 5c2d 563e
000001f0: 84da a1bd 319d a5bd 2aa9 423e ecb1 903d
00000200: 5291 723c ad73 29be bc03 bcbd 8fce 33bc
00000210: 9f15 9fbd a229 c6bd e030 e83c 5cd9 33be
00000220: c98c 963e a16b e7bd 64d3 6b3e ac26 2cbe
00000230: b3f8 573d 147e 38be 58d8 8e3e 5e16 2e3e
00000240: 77a3 0c3d 0ea1 803e eca2 30bd e817 8d3d
00000250: 5a75 c93d 0937 983d 01c8 58bc ce50 203e
00000260: 15d5 343e 5797 5e3e dd8d 343e 2f49 c83d
00000270: 7bea 303e bd57 fd3d 4836 ccbd da9a c4bd
00000280: 8a6d 0abe 2b48 2ebe aa01 2b3e 7b0c 17be
00000290: e894 2abe 8c33 5fbe 2f02 81be f1ed 203e
000002a0: 3e7a 523e 4131 6abd 3056 9c3d e0b9 cfbd
000002b0: 774d 97bd f816 9e3e f0bb 36be ac57 90bd
000002c0: b920 34be 2674 1ebe aeb9 853b f115 70be
000002d0: 34f9 f33d afbe 7a3e be18 efbd bf9f 22be
000002e0: 2db0 303e e67d aabd a814 6f3d 5630 1abe
000002f0: 52d0 0ebe cbe8 b13d bc5c 2fba 5042 473e
00000300: 3c99 fdbd ab86 b8bd f5a1 3cb8 da0f b7bd
00000310: 7994 303e e7fa 723e 37dd 283e 2509 60be
00000320: 975f 0bbd 383a 9bbd fce3 67bd 06a4 5ebe
00000330: da46 77be 83d7 e3bd 799a 82be ab35 1a3e
00000340: ccee 07bd 10a3 32be a9db 193e 85de 9c3d
00000350: d1d3 253e 6fb4 713e 6f9b 453e 554f 6f3e
00000360: 686d e03c e680 64be 285d 113e 99fb 75be
00000370: 4583 a6bd f177 b33d 661f 8b3e da97 2ebe
00000380: ee5e e8bd fd26 38be 5fb7 59bd 8687 f03d
00000390: 8119 1abe b696 c73d eaae 64bd c563 29be
000003a0: 11fe 1a3e 9717 e63d 04eb 27bb 7fa9 f03d
000003b0: 581b 4c3e ae3b 98bb d742 2cbe 337f f6bd
000003c0: d341 aebd 1f2d 553e 3ffb 7f3e 4c62 57bc
000003d0: a16f c6ba 9fbe 8a3d 5502 7e3d 3af7 e33c
000003e0: 47d7 64be cbcc 4cbe 55b6 203e fcf4 0f3e
000003f0: 7087 5e3e 8d89 e43c 75f5 4ebe 7588 793d
0.22297734 -0.046119135 -0.20021974 0.04899225 -0.24569237 0.09181456 0.0014414071 -0.13135238
-0.2179671 -0.19096562 0.057983797 0.17359784 -0.16220067 -0.1630052 -0.04775217 0.130986
-0.14472766 0.30947128 0.13456076 0.00045627516 0.09017327 0.2444667 -0.05904286 0.24701989
0.016615847 -0.17936008 0.0006381424 -0.22350442 0.20837623 -0.06867058 -0.0034847348 0.062583365
0.13721226 0.21566175 -0.2165489 0.082640246 -0.15863481 0.084500626 -0.31984356 -0.062086836
0.22080246 0.066794544 -0.21047868 0.2391919 0.044830933 -0.16197298 0.12003536 0.23575892
-0.036834758 0.06521032 0.23602317 -0.12830497 0.058305275 -0.18404445 -0.076257125 0.07982375
0.24573253 0.15391847 -0.113375284 0.14458278 -0.17084351 0.19669525 0.11127056 0.21444394
0.021872407 -0.21096331 -0.12491529 0.14032121 -0.14223205 -0.027818078 -0.22484782 -0.08990128
-0.24940237 -0.048050024 0.20821044 -0.028561307 -0.56321454 0.2770573 0.23213638 -0.12604834
-0.003644915 -0.050969027 0.118236214 -0.24181914 -0.20741627 -0.18677324 0.12471539 -0.19379853
0.024074536 0.033804603 -0.15120937 -0.03758589 0.07325689 0.047117222 -0.05586357 0.10565742
-0.2147733 -0.008696463 0.18515456 -0.17046076 -0.14874072 -0.02862934 0.084235065 -0.1643497
0.12123668 0.07503107 -0.17643073 -0.014345751 -0.17708832 0.22539113 0.0561325 -0.22607553
0.07528829 0.1790048 0.100573875 -0.17998323 0.14757776 0.023860317 -0.037453186 0.07467698
0.06262166 -0.06981896 0.09232676 0.2091574 -0.07903007 -0.080866225 0.19009843 0.07065186
0.014805155 -0.16548033 -0.091804 -0.01097454 -0.07767796 -0.096759096 0.028343618 -0.17563385
0.29404286 -0.112998255 0.23029858 -0.16811627 0.052727412 -0.18016845 0.27899432 0.1700072
0.03433558 0.25122875 -0.043124124 0.068893254 0.09836836 0.07432372 -0.013231278 0.15655825
0.1765941 0.21737419 0.17632242 0.09779584 0.17276947 0.123702504 -0.09971291 -0.09599848
-0.13518348 -0.17019717 0.16699854 -0.14750855 -0.16658366 -0.21797007 -0.25196978 0.15715767
0.20554444 -0.05717588 0.076336265 -0.10142875 -0.07387822 0.308769 -0.1784513 -0.07047972
-0.17590608 -0.15473995 0.0040809726 -0.2344587 0.11912766 0.24486803 -0.11674641 -0.15881251
0.17254706 -0.083247945 0.05836931 -0.15057501 -0.13946655 0.0868698 -0.0006689539 0.1945889
-0.12382743 -0.09010061 -4.4973527e-05 -0.0893857 0.17244138 0.23728524 0.16490637 -0.21878488
-0.03402671 -0.07579464 -0.056613907 -0.21742257 -0.24148121 -0.1112509 -0.25508478 0.15059535
-0.03318672 -0.17445016 0.150252 0.0765963 0.16194083 0.23603986 0.19297574 0.23370107
0.027395919 -0.22314796 0.14195693 -0.24021758 -0.081305064 0.087631114 0.27172393 -0.17050114
-0.113462314 -0.17983623 -0.053153392 0.11744599 -0.15048791 0.09745543 -0.055830874 -0.16541965
0.15135981 0.11234968 -0.0025622258 0.11751079 0.19932306 -0.0046457862 -0.16822372 -0.1203598
-0.08508649 0.20817994 0.24998187 -0.013145994 -0.0015139469 0.06774639 0.062013943 0.027827848
-0.22347747 -0.19999997 0.15694554 0.14058298 0.21731353 0.02789762 -0.20210822 0.06092115

9.bias f4 [32]
00000000: db04 3dbe f1aa f2bd 7d04 a3be 41d7 a7bd
00000010: 88b7 5abd ddb7 cfbc 3bbb 08be 1ee4 4abe
00000020: d04d 9c3e ed4b 6bbe d292 90be 6461 39bd
00000030: aa49 16bd fae9 213e 5ca4 8dbe c968 973e
00000040: 8351 56be 54cc 33be 7fdf e9bd 0454 13be
00000050: e64c 84be bbbd 5a3e b296 45be cf7d 07bd
00000060: 3a85 11be aca9 723e 16e2 4ebe f718 1f3d
00000070: 58dc 49bd b751 70bd 285a c0bd 1936 4c3c
-0.18458883 -0.11849011 -0.31839362 -0.08195353 -0.053397685 -0.025356228 -0.13352673 -0.19813582
0.30528116 -0.22978182 -0.28237015 -0.045258895 -0.036691345 0.15811911 -0.2766446 0.29572132
-0.20929532 -0.17558414 -0.114195816 -0.14387518 -0.2583992 0.21361439 -0.19295767 -0.033078965
-0.14210978 0.23697537 -0.20203432 0.038842168 -0.0492824 -0.05867168 -0.09392196 0.01246407

11.weight f4 [64, 32]
00000000: bc2e 6b3e d4ce cabd 66cd 93bd 5bb5 4bbd
00000010: 0843 e3bc 2867 213e ec91 563d caed a33b
00000020: 2502 683e 9d16 f3bc 8465 543b 017e 153e
00000030: c0c4 0cbe a061 6d3d 705c 043e 5a12 303e
00000040: 612b 2b3e f289 213e af97 793d c1c0 c4bd
00000050: da88 133e e97e babd 15e3 163e 049e 12be
00000060: ae49 b4bd 66fc 07be 2db4 19be b073 de3b
00000070: 897a 94bd 8a30 25be 4504 09bd 3018 01be
00000080: 625f f83a 5c58 c63d 4265 92bd fdf8 7d3b
00000090: 0004 0dbd 586b 933d 1008 443c 508d e4bd
000000a0: 9f52 2cbe 9f75 debd c2ee 15be da27 c23d
000000b0: 044a 0dbe 28fc 173d 9448 4abd 01fb 803d
000000c0: 2678 81bc b716 0cbe 0b6a 33bd a834 1f3e
000000d0: 38df 3e3d 787a 9abd 406b 733d 0347 8abd
000000e0: 2731 263e 8dc9 12be f75f 973d ce83 f53c
000000f0: fef9 33be 99b5 17be 81a2 303d ad09 c93d
00000100: c366 00be ffb1 b5bc 8f0e fbbc 5801 843d
00000110: 6a76 36bd 8c71 2c3c 1a4a dabd 37c4 a2bb
00000120: 8393 d43d ec14 c8bc 08c9 a53d ecef 2fbe
00000130: ae05 a3bd 7427 e5bd 7f31 f9bd 5c62 e93d
00000140: 00c8 173e 7124 2c3b c7c3 233c 3c5e 94bd
00000150: 4cf1 ddbc aad2 3d3e cddb 7e3d f24e 193e
00000160: a469 be3d e578 b1bd 528b eabc 50fd 5fbd
00000170: b661 efbc ed0a 62bc 6713 953a e138 91bd
00000180: 02d7 c93d f068 383e 26a6 883d 889a 633d
00000190: 4077 fd3b 8bf6 503e f2bf c03d a2c6 083e
000001a0: be1f 9b3e 1e83 eb3d c8d6 9c3d dc05 5f3d
000001b0: e73b 113e ef15 e03d 67de eb3d 54d0 3bbc
000001c0: 2025 7bbd e992 c7bd 58be 46bd 66f4 0cbe
000001d0: 8a84 97bd 7556 8ebc b9ac 033d e8e2 993d
000001e0: f392 203e b59a dabd d74b 2bbe f9d9 dc3d
000001f0: e2bf 633c 005f 0ebe 8978 693d f029 33be
00000200: 7a84 2e3e 8e83 ff3d dd2e 19be c8e7 ae3d
00000210: 5b15 07be dd36 e53c eef7 cabd 343f dd3c
00000220: 9d41 843e 6847 f2bc ff1b 30be 5d6a af3d
00000230: 9f1a 1fbe d687 2e3e 6114 9a3d 0d78 c1bd
00000240: ee53 d13c fc2f 003e 9572 73bd 79e6 b8ba
00000250: 79e5 a9bd add5 11bd 14d0 8a3d 939b b0bb
00000260: 8ced 4cbd 0569 c1bd f2f8 9cbd 5ad2 11be
00000270: 4735 883d b062 56bd f97a dc3d 679f 88bd
00000280: 0412 64bd 7438 52bd ea49 863d 4f79 04be
00000290: 8bbe 333e 1c44 713d 8c8c 503d d1a0 a9bd
000002a0: fcc5 323e f608 d63d 8ae7 d93d f14a 663c
000002b0: 25d0 28be 7b25 90bd 7c06 1dbb 74a4 47bd
000002c0: 6bd2 243e b19f 0d3e 12f8 7abd 6961 18be
000002d0: 0e5a 9ebd 2c86 06be 745f f1bc 61b8 88bd
000002e0: 4a31 da3d 7d9c 33be b0e6 dbbc 9a5a cabd
000002f0: 5b88 83bd dfbf aebd 0881 83bd 1ccf 8d3b
00000300: 9905 313e 44de 123e e311 0e3e a453 8e3d
00000310: eadf abbd 4317 8bba f8eb d5bc a332 17bd
00000320: 2074 823d d436 5c3d 9d58 a0bc 536d ffbd
00000330: 84c1 043e ed6f 643d fb78 053d c35f cdbd
00000340: 5ddf 83bd bef5 5f3d 656a b5bd 1b11 093e
00000350: 3c70 66bd 2d8a 23be 9310 d2bd 3be3 d33d
00000360: f54f 183e 9111 e7bd 9332 283e b1ad 0b3e
00000370: aadf 343c 0a64 013c 953e 943d cca9 97bd
00000380: cfa2 f7bd 343e 15be 7550 a03d 1ef2 4bbe
00000390: 01d7 0e3e 3331 39bd 94e4 b03c 9d0e 9b3c
000003a0: 15ff 403d f25b 76bb 215d ce3c 3cbd 933c
000003b0: 10ec 083d 1858 47be d001 06be 57ee 3b3d
000003c0: 9d03 0abe 5b98 153e 8301 0f3d 8e95 033e
000003d0: 6baf 043e df32 ac3d f98d d1bb 3248 e63b
000003e0: 9643 8d3d 77f4 29be 7f62 2cbe 20f2 f8bd
000003f0: 2368 293d b792 f03d 569f b1bd 4bfe 88be
0.22967046 -0.099027306 -0.07216911 -0.0497335 -0.027741924 0.15762007 0.052385256 0.005002712
0.22657068 -0.029673869 0.003240914 0.14598848 -0.13746929 0.05795443 0.12925887 0.171945
0.16715766 0.15775278 0.060935672 -0.096070774 0.14407673 -0.091062374 0.14735062 -0.1431809
-0.08803116 -0.13279876 -0.15010138 0.0067886934 -0.07249934 -0.16131797 -0.033451337 -0.12606883
0.0018949325 0.09684822 -0.0714822 0.0038753145 -0.034427643 0.071982086 0.011964813 -0.11159766
-0.16828392 -0.10862278 -0.1464186 0.09480257 -0.13797766 0.03710571 -0.049385622 0.06297875
-0.015804362 -0.1368054 -0.043802302 0.1554743 0.046599597 -0.0754289 0.059428453 -0.06751826
0.16229688 -0.14334698 0.07391351 0.029970076 -0.17575833 -0.14815368 0.043123726 0.09816299
-0.125392 -0.022179602 -0.03064659 0.06445569 -0.044546522 0.010525119 -0.10658665 -0.0049672383
0.10379698 -0.024424039 0.08094984 -0.17181367 -0.07960068 -0.11189166 -0.12167644 0.11395714
0.14822388 0.0026266838 0.009995407 -0.07244536 -0.027092598 0.18537393 0.062221337 0.14971521
0.09297493 -0.08665637 -0.028630886 -0.054684937 -0.029221397 -0.01379655 0.001137358 -0.07090927
0.098554626 0.1800878 0.06672315 0.055567294 0.007735163 0.20406549 0.09411611 0.13357022
0.30297655 0.11499618 0.07658154 0.054448947 0.14183007 0.109416835 0.11517029 -0.0114632435
-0.061314702 -0.09744818 -0.04852137 -0.13765106 -0.07398327 -0.01737521 0.032147143 0.07513982
0.15681057 -0.10674039 -0.1672815 0.107837625 0.013900729 -0.13903427 0.056999717 -0.17496467
0.17042723 0.12476264 -0.14959283 0.085403025 -0.1319174 0.027980262 -0.0991057 0.027007677
0.2583131 -0.029575065 -0.1719818 0.08565209 -0.15537499 0.17044005 0.07523418 -0.09446726
0.025552716 0.12518305 -0.059435446 -0.0014106772 -0.082957216 -0.035604168 0.06777969 -0.0053896396
-0.05003123 -0.09443859 -0.0766467 -0.14240399 0.06650787 -0.05234021 0.10765643 -0.066710286
-0.055681244 -0.05132337 0.06557067 -0.129369 0.17553155 0.058902845 0.050915286 -0.082826264
0.17458338 0.10450928 0.10639866 0.014055953 -0.16485651 -0.07038399 -0.0023960164 -0.04874082
0.16095893 0.13830449 -0.061271735 -0.14880909 -0.0773202 -0.1313712 -0.02946446 -0.066757925
0.106539324 -0.17540164 -0.026843399 -0.09880562 -0.06422492 -0.0853269 -0.06421095 0.004327668
0.17287292 0.143426 0.1387401 0.06949547 -0.083923176 -0.0010611791 -0.026113495 -0.036913525
0.06369805 0.053763226 -0.019573504 -0.12472024 0.12964445 0.055770803 0.03258608 -0.10028031
-0.064390875 0.054677717 -0.08858184 0.13385431 -0.05625938 -0.15970679 -0.102570675 0.10346075
0.14874251 -0.112826474 0.16425543 0.13640477 0.011039654 0.007897386 0.07238499 -0.07405433
-0.120916 -0.1457451 0.07827846 -0.19916579 0.13949205 -0.045212936 0.02159337 0.018927867
0.047118265 -0.0037591425 0.025190892 0.01803457 0.03342825 -0.19467199 -0.13086629 0.045881595
-0.13477941 0.146089 0.03491355 0.1285002 0.12957542 0.084081404 -0.0063950983 0.0070276493
0.068976566 -0.16597162 -0.16834448 -0.12155557 0.04135908 0.11746734 -0.08672969 -0.2675651

11.bias f4 [64]
00000000: c1bc 3dbd 67de f6bd 9a50 953e 12fd 793e
00000010: 4907 9b3e 6027 f7bd 3193 acbd 42c0 5dbe
00000020: 0589 8f3c a464 ffbd 7933 b4bd f18b 753e
00000030: 50ab afbd a72b b63e 6160 aa3e f4e8 903d
00000040: 83f8 1dbe 6a2b a13e d13a 483e 9259 27be
00000050: 210e c03e 6a71 52be 8df8 81bd 97ca 62bd
00000060: 0209 5d3e cd0e 57bd b7cd 0ebe 169a 6cbd
00000070: f27d b7bd 9aaa 13be be55 b7bd 52f2 6cbd
00000080: 72f5 aa3e 86e3 0b3e 2ee5 65bd ae98 673e
00000090: 48c9 a63e 972f 7a3e de95 a53e 897e 1fbe
000000a0: e045 673e a756 41bd c4df 353e 5b51 3fbd
000000b0: ab9b 57be 1c2b 6bbd 819f 8a3e 4a55 26be
000000c0: 5bd8 9d3d f8e6 893e f6e1 20be 82cf 5bbb
000000d0: 5a85 c93d 2f42 703e 633a 3c3e 53e8 7cbe
000000e0: 31be 1bbe 17ae c23e 8028 993e c771 c73d
000000f0: 77f8 c33d 6ae6 35bd 908c a13e 5796 8b3e
-0.046322588 -0.12054139 0.29163057 0.24412945 0.30278996 -0.12068057 -0.08426512 -0.21655372
0.01752139 -0.124703676 -0.0879888 0.23979165 -0.08577597 0.3558018 0.33276656 0.07075682
-0.15426831 0.31478435 0.19553687 -0.16342762 0.3751078 -0.20551077 -0.063462354 -0.055368986
0.21585467 -0.05250435 -0.13945661 -0.057764135 -0.08959569 -0.14420548 -0.08951901 -0.057848282
0.33390385 0.13661012 -0.056126766 0.22616836 0.3257544 0.24432217 0.32340902 -0.15575613
0.22585249 -0.04720178 0.17761141 -0.046708446 -0.21055476 -0.05741416 0.27074817 -0.16243473
0.07707282 0.26934028 -0.15711197 -0.0033540432 0.09839888 0.23462747 0.18381648 -0.24698
-0.15209271 0.38023445 0.29913712 0.09738498 0.09568875 -0.044409193 0.31552553 0.27263138

13.weight f4 [128, 64]
00000000: 33e7 a2bc f0ff d1bd 4c7f 003e afd2 873d
00000010: 4a42 a7bc f447 76bd 84a3 7bbc c378 a2bd
00000020: b085 b33b 5c89 83bd 5e50 a63d 21b1 753c
00000030: c9e8 09bd 1e66 933d 0e08 bdbd 1e6d bbbd
00000040: f4be bd3d 480d 573d d77c dbbd 5c11 9d3c
00000050: 349a 85bc f3c3 a9bc 0202 edbd 0619 953d
00000060: 801e 023d a72c aa3c 3766 9abd c77b 833e
00000070: b4c5 903c d1f0 17bd ca9e 79bc d328 053e
00000080: f73f 13be 4f83 8e3c 3605 313e e353 743e
00000090: d6ec 11be cd45 ec3c 6103 073d d05c a13c
000000a0: 1bde 5f3e 1177 a23d 4038 693d 907a 163e
000000b0: 6e7e 51bd 54bb 99bb ead1 4bbc 1163 b0bd
000000c0: a01d 793d 05ae e2bd c98f b03d 8e33 5b3c
000000d0: 8ed7 93bd 725d 05be abd0 20bb b160 113e
000000e0: 5af7 0cbd b8ef 05be 1850 15bd 168e 4ebd
000000f0: 4f18 9b3d 7db7 b03d d8d5 723d ab2b 31be
00000100: 9a31 82bc 79cd 6abd b577 d63d 7915 9c3d
00000110: 07f6 92bd f815 193d cd65 73bd f999 793d
00000120: d2d7 d93d d839 b2bc 439f 833d bfe3 8ebc
00000130: aafd 5e3d c25d 563e b186 ad3d f75f 52bd
00000140: 0a55 a33d 85f2 d1bd bae4 6abc 007f f4bd
00000150: d3d2 0fbe cc90 c73d 2ef8 643d 39f4 3dbc
00000160: 7178 68bb 8a31 a6bd 241e 5dbd 0adf e5bd
00000170: a002 aebd 623a 51bd f8b4 d63c 5b7d be3d
00000180: 5960 433d 81c9 c53d 486d f43c c56c 603d
00000190: e749 83bd a945 613d 5cbf 39be 364d 363d
000001a0: f90c ce3c 72bc 12bc 3f40 b7bd e55d c93d
000001b0: 8081 183d f5b9 f3bd c493 51bd db8c bb3d
000001c0: a164 ce3d ecd0 8fbd 3280 98bd 4a1d 95bc
000001d0: eb43 8f3d 0761 b83c 8b84 ae3b 7d59 9dbd
000001e0: e722 b43d 83b0 02be 05d8 e9bc 709f df3c
000001f0: 4837 c43d e129 36bd 94f7 ac3d f39a beb8
00000200: 1447 dcbd dc67 aabd 3adf 35bc 9b2b f2bd
00000210: 1837 40bb 8ca8 5abd ee31 40bd 01cb c0bd
00000220: 7cc4 14bc 3b1c 86bd 6f0b a3bd 6b58 8cbd
00000230: e05e b03d 1fcb 073c d06b bdbd 645f 7d3d
00000240: c6f5 c23d 6078 ab3d 8032 89bd 7257 f5bd
00000250: 7375 82bc 8aa3 ae39 2826 d9bc ae45 803c
00000260: f9b5 cbbd 226f b43d 8edb c3bc a7ad 993c
00000270: dc51 853c e34b a5bd d17d 643d c0ef a1bd
00000280: 0bf6 b03d c495 ab3d 34de 78bb 4361 e7bd
00000290: e2fe cd3b 2c49 0a3d 94c9 05be 56bd 9e3d
000002a0: 24e5 fe3d b2a2 a7bd 2645 a33d f405 7a3c
000002b0: bc7c 093e f120 8ebd 54b2 5dbd e609 f6bd
000002c0: ef81 4dbb 5df6 b9bc dacd 2cbc 78e4 93bd
000002d0: b092 b9bd 2d35 ebbc eb09 0e39 1ca4 3a3d
000002e0: 1a5c 4dbc 6573 7b3c 0a44 d0ba 0bc7 0abd
000002f0: fe2c 073e aa74 a23c a164 d93d 8342 d9bd
00000300: e569 c7bc 6d74 c23d 14b9 973d 4236 e0bc
00000310: 0c53 f6bd 42e7 ed3d 417b d03d f356 4c3d
00000320: 675c 89bd 913b dabc 4d33 083d 1914 713d
00000330: cc44 20bd abb9 693c 46f1 b8bd d20d 3e3d
00000340: 5884 de3d 5be3 4ebd d0b6 cd3d f249 b13d
00000350: 9536 e5bd 8ce3 7dbc 3d9a 89bc 9411 eb3c
00000360: 6d9f 2fbd 5041 ba3b a877 a33d 1b07 18bd
00000370: 241c 78bc 689d 75bd 25a4 bf3a dda4 39bd
00000380: a515 a83c 7a06 4dbd 8e39 80bc 86be 833d
00000390: b85e c93d 79aa f8bd 6a98 e0bd 3586 803d
000003a0: ced2 a03d d713 973d 7ab8 f2bd 2627 0d3e
000003b0: e349 eebc 9e29 0bbc 3fb3 12bd e326 123e
000003c0: e2a9 8cbc c348 553d e1ba 743c c485 d93d
000003d0: 3e46 0fbd 58c0 07bc 1658 a5bd f74e 9fbb
000003e0: 839e a23d ae0f 5d3b e6b5 d73d d632 bf3d
000003f0: 64a3 283d b2a4 d23d a02f d2bc 5841 93bd
-0.019885635 -0.10253894 0.1254856 0.066319816 -0.020417351 -0.060127214 -0.015358809 -0.0793319
0.0054785833 -0.064226836 0.081207976 0.014995844 -0.033669267 0.07197212 -0.09230052 -0.09151672
0.09264937 0.0525029 -0.10717171 0.019173317 -0.016308881 -0.020723319 -0.115726486 0.072801635
0.03176737 0.020773245 -0.07539027 0.25680372 0.017672397 -0.037094895 -0.015235612 0.13003854
-0.1437987 0.017396597 0.17287144 0.23860125 -0.14250502 0.028841877 0.032962207 0.019697577
0.2186207 0.07932866 0.05693841 0.14695191 -0.051145963 -0.0046915207 -0.012440184 -0.086126454
0.06081927 -0.11068348 0.08621175 0.013378991 -0.07218848 -0.13023928 -0.0024538438 0.14197041
-0.03441558 -0.13079727 -0.036453336 -0.050428472 0.07572996 0.086287476 0.05928597 -0.17301814
-0.015892792 -0.05732486 0.10472051 0.07621283 -0.07175832 0.037374467 -0.059423257 0.060937855
0.106368676 -0.021756098 0.06426861 -0.017442582 0.05444113 0.20934203 0.08472956 -0.05136105
0.07975204 -0.10251335 -0.014336759 -0.11938286 -0.14045267 0.09744415 0.055900745 -0.011593872
-0.003547218 -0.081149176 -0.053983822 -0.11224182 -0.084965944 -0.05108107 0.02620934 0.093012534
0.047699306 0.096575744 0.029837266 0.05479123 -0.0641058 0.054998074 -0.18139404 0.044507228
0.02515267 -0.008956062 -0.08947801 0.09832362 0.037232876 -0.11900703 -0.05116631 0.091577254
0.10077787 -0.070222706 -0.07446326 -0.018202443 0.06995376 0.022507204 0.005325859 -0.07683084
0.087957196 -0.12762646 -0.028545389 0.027297705 0.095808566 -0.044473533 0.08445659 -9.0887675e-05
-0.107557446 -0.08320591 -0.011100585 -0.11824723 -0.0029329713 -0.053383395 -0.046922617 -0.0941372
-0.009080049 -0.06548353 -0.07961165 -0.06852802 0.08611846 0.008288174 -0.09249079 0.06185855
0.09519534 0.08372569 -0.06699085 -0.119795695 -0.015925145 0.00033309712 -0.026507452 0.015658226
-0.09946818 0.088102594 -0.023908403 0.018759562 0.016274385 -0.08071115 0.05578405 -0.07907057
0.08640679 0.08378175 -0.003797424 -0.11297848 0.006286488 0.03376119 -0.13065177 0.07750957
0.12446049 -0.081853285 0.079721734 0.015260208 0.13426489 -0.06939877 -0.054125145 -0.12013607
-0.0031357964 -0.022700483 -0.010547126 -0.07221311 -0.090611815 -0.02871188 0.0001354587 0.045566663
-0.012534166 0.015347336 -0.0015889418 -0.03388123 0.13200757 0.01983102 0.106148966 -0.10608389
-0.024342487 0.09494863 0.07408348 -0.027369622 -0.12027559 0.116163746 0.10179759 0.04988761
-0.067070775 -0.026639732 0.03325205 0.058857057 -0.03912811 0.014265458 -0.09030394 0.0463999
0.10865086 -0.05050979 0.10044634 0.08656682 -0.11192051 -0.015496146 -0.01679718 0.028694905
-0.04287665 0.0056840554 0.07981807 -0.03711615 -0.015143428 -0.059964567 0.0014621062 -0.04532324
0.020518133 -0.050055005 -0.015652444 0.06432824 0.09832519 -0.1214189 -0.10966571 0.06275598
0.07852708 0.07376831 -0.11851592 0.13784465 -0.029087966 -0.008493809 -0.035815474 0.14272647
-0.01717085 0.052071344 0.0149371335 0.10621217 -0.034979098 -0.008285604 -0.08073442 -0.0048617083
0.0794039 0.003373127 0.10532741 0.09335868 0.041171446 0.102853194 -0.025657475 -0.07190198
