data_analysis/src/models/trained_models/model_d_l64_f35_g39.pth (torch, 142184 bytes, 18 tensors)

0.weight f4 [64, 35]
000000 85 4d 34 bf 57 9a 7f 3e 78 da 0f 3e 51 e9 a4 be
       -0.70430785 0.2496122 0.14048183 -0.32209256
000010 52 01 68 bd a9 41 e8 3c c6 84 2d 3d d4 f0 08 bc
       -0.056641884 0.028351622 0.04236295 -0.008358199
000020 10 8f 59 be 2b 7b 35 3d f1 30 d3 bd c6 39 97 3e
       -0.2124598 0.044306915 -0.10312069 0.29536265
000030 ee bc 86 3e cf f4 e8 3d 39 8d 03 be 1f 0c 71 3e
       0.26316017 0.113748185 -0.12846841 0.2353978
000040 75 38 d5 bd e5 ff 8e 3c 02 3d 88 bf 1f 0f 93 be
       -0.10411159 0.017456004 -1.0643618 -0.28722474
000050 3c 67 5d bc 52 a3 d7 be 20 4b 6c be 81 41 e9 bc
       -0.0135133825 -0.4211679 -0.23075533 -0.028473618
000060 6d 71 82 3d f5 fe a9 be 27 7b fc bc 93 77 81 be
       0.063692905 -0.3320233 -0.030820442 -0.2528654
000070 85 db 19 3e 73 e9 1d bd 6c 15 2f 3d 6c c2 80 bd
       0.15025146 -0.038552713 0.04274504 -0.06287083
000080 5a 45 17 3e 9d 50 98 be ef b2 07 3e 7d f6 7d 3d
       0.1477255 -0.29749003 0.13251851 0.062002648
000090 0e bc 86 3d c7 56 8b bc 33 40 16 be f1 e7 19 be
       0.06578837 -0.017009152 -0.14672928 -0.15029885
0000a0 a4 af 05 be 5e 81 1d bc a0 ec 60 3a ed 8f 03 3e
       -0.13055283 -0.009613363 0.0008580182 0.12847872
0000b0 b7 de 0d be 35 98 48 3d 43 f7 cd bd ab 8c da bd
       -0.1385449 0.04897328 -0.10056927 -0.106713615
0000c0 2e 61 78 3d 2c 7c 80 bd 89 c4 b3 bc 4b 42 ae bb
       0.060639553 -0.06273684 -0.021944301 -0.0053179613
0000d0 50 bd 13 be df 5c d8 bd d2 28 73 be 3b bf b9 3a
       -0.14427686 -0.10564589 -0.2374604 0.0014171371
0000e0 75 b4 d5 bd 8e 03 a1 bd d8 17 5d 3d 56 64 bd bd
       -0.1043481 -0.07862006 0.053977817 -0.09247653
0000f0 73 bf 43 bb 7d 1f 08 3e f0 df af b9 88 32 47 be
       -0.0029868751 0.13293262 -0.00033545448 -0.1945287
000100 bf a9 82 be e4 7b ed 3d 96 fd a8 3d 6f e2 88 bd
       -0.2552013 0.11595896 0.08251493 -0.06683814
000110 4d e6 1d be 73 56 a6 3d af 3a 85 3f 3b d1 15 bf
       -0.15419884 0.08121958 1.0408534 -0.58522385
000120 c8 4d 49 bc 0c 61 01 3f 05 36 ea bd 92 a9 c0 3c
       -0.012286611 0.50538707 -0.11436085 0.023518357
000130 62 c9 de 3d 18 34 6b 3f 0f 7f 46 3e 02 cb 00 3d
       0.108782545 0.91876364 0.19384407 0.031443603
000140 16 8a 48 3e 6d c3 0b bf 90 b8 08 3e 52 a5 8b be
       0.19583926 -0.5459507 0.13351655 -0.27274567
000150 e0 cf 79 3e d7 8b 3d bd 14 9f 65 3d 03 83 e8 3d
       0.24395704 -0.04627594 0.05605991 0.113531135
000160 60 ff 9d 3f e4 85 a3 3e 72 34 1d 3f fb da 05 3f
       1.2343559 0.31938088 0.6140815 0.5228726
000170 45 2d 0c 3f 29 06 5f 3f bc ba e0 bd ab 0c db 3e
       0.54756576 0.87118775 -0.10973117 0.42783102
000180 55 c4 83 bc ba dc 69 bc ca 9d 11 3d 76 2c 24 3f
       -0.01608483 -0.014273817 0.03555087 0.6413034
000190 4b 38 67 3e 32 62 bf bc 5b 28 16 3e fa 97 49 3f
       0.22580068 -0.023362253 0.14663832 0.7874752
0001a0 e0 8a 05 bf 97 6c 6f 3f 66 94 9b be d7 6b 3b 3e
       -0.5216503 0.9352507 -0.30386657 0.18302856
0001b0 c1 57 da 3e 53 6d b7 3d d6 09 a0 3e 71 e2 27 3e
       0.42645076 0.08956399 0.31257504 0.16394974
0001c0 07 17 1f 3f 58 1f b6 3e 05 24 95 bd 2e 65 c3 3e
       0.6214451 0.35570788 -0.07282261 0.3816313
0001d0 b1 e6 31 bf 68 e5 16 3e 0f 93 95 be 9f 3c a6 3e
       -0.6949263 0.14735949 -0.2921376 0.32468125
0001e0 a3 22 50 be 2a 7e 72 bb 01 8b d7 3c f1 1f 84 3f
       -0.20325713 -0.003700147 0.0263114 1.0322248
0001f0 03 5a 80 3e c7 da 01 3f c3 43 b4 3e 3a 3d 11 3f
       0.25068673 0.5072445 0.35207948 0.5673405
000200 27 76 40 3f 18 07 ad be d4 93 62 3e 0c 43 dc bd
       0.75180286 -0.33794475 0.22126704 -0.10754976
000210 77 15 4a 3d 14 0d ba 3b 31 74 ef 3e 6c 86 90 3e
       0.049336877 0.0056778286 0.46768335 0.28227556
000220 ad 95 b0 bd 7f c5 e5 3d 1f 5a 19 3f 28 00 05 bf
       -0.086222984 0.1121931 0.5990314 -0.51953363
000230 9b 50 05 bf 38 e4 8c 3e 7f 78 fe bc 86 3d 13 bf
       -0.5207612 0.27517867 -0.031063316 -0.5751575
000240 4c bd 32 be d2 d7 d7 bd 2c 8d 47 3d 7d be a9 be
       -0.17455024 -0.10539211 0.048718616 -0.33153144
000250 46 cf 04 bd 61 5d 58 be 4d 18 90 3c 34 c0 1c 3f
       -0.032424234 -0.21129371 0.017589713 0.6123078
000260 ab da 57 3c 75 cf 24 3e 37 cd bc be 8c 45 d0 3d
       0.013174693 0.16094764 -0.36875317 0.10169515
000270 99 2b fc bd 6f dd 0b 3e ad 68 7d bf 17 91 7e bd
       -0.12313003 0.13658689 -0.9898785 -0.062150087
000280 bf 7f 99 bd e9 12 d3 be 78 91 64 be 70 56 14 bd
       -0.07495069 -0.41225365 -0.22321117 -0.036215246
000290 94 d8 a2 3b 6e d5 54 be a2 5e fc 3d a2 bf 26 be
       0.004969666 -0.20784542 0.12322737 -0.1628404
0002a0 96 20 f4 3d ff b5 27 be d4 de 46 be c3 cc e1 bd
       0.11920278 -0.1637802 -0.1942094 -0.11025383
0002b0 19 2a d1 bd f6 ea 21 bf a9 9d a0 3e 28 0c 11 bf
       -0.102131076 -0.63249147 0.31370285 -0.56659174
0002c0 69 24 d1 3e 07 91 74 be 76 46 81 bd 78 96 77 3e
       0.4084809 -0.23883449 -0.063122675 0.24178493
0002d0 40 8a 80 bd 51 e8 b4 bc 18 d3 87 be 50 62 9b be
       -0.06276369 -0.022083433 -0.2652824 -0.30348444
0002e0 5b 9a 3c 3d 5f 6c 4d be e0 76 97 3e 76 1c 86 bd
       0.046045642 -0.20060872 0.29582882 -0.06548397
0002f0 e2 b8 75 3d c3 cb 93 bd 81 83 11 3d 9e b6 db 3e
       0.05999077 -0.07216599 0.035525803 0.42912763
000300 91 e0 d1 3e 71 3b 6d bf c3 91 c2 3e 27 88 7d 3e
       0.40991643 -0.92668825 0.38001832 0.24758969
000310 d7 18 85 bd 0e 32 ff bd 79 54 6d be 72 2e 36 3f
       -0.064988784 -0.12460719 -0.23176755 0.7116462
000320 dc 9f b2 3e 66 2d be bd cb ad a4 be 41 5e 51 3c
       0.34887588 -0.09286003 -0.32163844 0.01277882
000330 72 75 9e be f5 a9 79 3d 01 a1 9a bd cd 51 bc 3d
       -0.3094898 0.0609531 -0.0755024 0.0919529
000340 3b 4f 27 be 35 2a ce 3e 3e 28 4a be f0 64 d8 bd
       -0.16338818 0.40266576 -0.19741914 -0.10566127
000350 31 04 2b 3e a3 7a 6f 3d be 7c 2c 3e 90 47 24 3e
       0.16700818 0.058466565 0.1684446 0.16042924
000360 13 4b 9e 3d 61 18 a4 3e 85 d2 0a be 86 d6 f7 3c
       0.07729163 0.3204985 -0.1355687 0.03025366
000370 8e ac c6 bd db b5 34 3e b2 d2 68 3e 2b a5 83 3d
       -0.09700881 0.17647497 0.22736624 0.06427988
000380 db ec 4b be cb dd a0 3e 66 31 86 bd f8 7e 01 be
       -0.19914572 0.31419215 -0.06552391 -0.12646091
000390 1d 10 32 bf 2c ab 3f be cc b7 af 3e e2 2c 08 bf
       -0.69555837 -0.1871764 0.34319913 -0.53193486
0003a0 2b 77 ea be 62 ac 9f 3c cc ed 8f bd d0 3a 81 be
       -0.45794043 0.019491378 -0.07027778 -0.25240183
0003b0 6e 9b 27 3d 71 b4 dd be 48 9d 02 3e 82 df f9 bd
       0.040919714 -0.43301728 0.1275531 -0.12200834
0003c0 66 55 1e be d6 77 0e 3e be 13 19 3d be a9 30 be
       -0.15462264 0.13912901 0.037372343 -0.17252252
0003d0 d3 6f 39 be 24 17 65 bf 61 73 91 3e 4f 51 22 bd
       -0.18109064 -0.89488435 0.2840834 -0.039628323
0003e0 f3 d4 b1 be 5d 10 f0 3c 78 c6 22 be 9f d8 72 bc
       -0.3473278 0.029304678 -0.15896022 -0.014822154
0003f0 cb d1 01 bf 4e 56 96 bd 32 3b a6 3d a8 d4 87 bc
       -0.50710744 -0.0734068 0.08116759 -0.016580895

0.bias f4 [64]
000000 e4 a7 ac 3c 0b b1 19 3d 9b 61 db 3d 0f d4 c3 3c
       0.02107615 0.037522357 0.10711976 0.023904828
000010 ab b6 6d 3a 13 8d 4c 3e 05 2e b6 3c 1d 77 e1 3d
       0.0009068052 0.1997569 0.02223874 0.11009047
000020 80 e2 ad bd 54 94 d3 3d 3f 54 0d 3e 85 d6 3c bd
       -0.08490467 0.10331026 0.13801669 -0.04610302
000030 10 d3 15 3c ac b4 2f be ed 39 0c 3e bc a9 ce 3d
       0.0091445595 -0.17158765 0.13693972 0.10090968
000040 77 a5 7d 3d e8 b9 8b 3d b6 d6 87 bd 16 f6 50 be
       0.061925378 0.06822568 -0.0663275 -0.20406374
000050 0d fd 8a 3c 07 2a 46 3d 41 6c d6 bd e4 61 c7 be
       0.016966367 0.048379924 -0.104698665 -0.38941872
000060 77 30 06 3e 57 eb da be b0 aa 01 3d a5 22 bf 3d
       0.13104425 -0.42757675 0.03165692 0.0933278
000070 c4 dd 10 3e c7 d2 04 3e 58 1c bf bb b1 b3 4c 3c
       0.14147097 0.1297103 -0.0058322363 0.012494014
000080 46 82 c5 3d 61 c8 31 be d5 39 86 be 40 14 77 3d
       0.09643988 -0.17361595 -0.26215997 0.060322046
000090 e7 79 a0 3c 3d 42 98 be d1 3a 1c bc 62 21 37 be
       0.019589378 -0.29738036 -0.009535507 -0.17883828
0000a0 37 85 2d bd d8 39 a0 bd 7c b4 97 be 15 da 21 be
       -0.04236337 -0.07823533 -0.29629886 -0.15805848
0000b0 5c 3b db bd 59 41 d4 3b 0f 3b c6 bd ee 35 a3 bc
       -0.10704681 0.0064775166 -0.09679233 -0.019923177
0000c0 5b 46 d3 bb 13 11 99 bc 7a 77 bb be 82 e6 68 3e
       -0.006447596 -0.0186849 -0.3661459 0.22744182
0000d0 44 09 00 3e 5f d3 16 3e 1d 77 1e be 06 60 9a be
       0.12503535 0.14729069 -0.15475126 -0.30151385
0000e0 2a f5 90 3d fe 92 ca 3c 70 22 03 bd b4 29 1b 3e
       0.07078011 0.024728294 -0.032015264 0.15152627
0000f0 a1 67 ff bd a3 37 87 3e dd e1 24 be b9 d9 f9 3d
       -0.124709375 0.26409635 -0.16101785 0.121997304

2.weight f4 [64, 64]
000000 84 f1 be 3c b1 83 e3 bc 63 8e 28 3d 9d 6c 38 be
       0.023308523 -0.027772756 0.041151416 -0.18010183
000010 a2 9e 83 3d e3 cc 56 bd bb b7 08 3c 7b 3e 51 bd
       0.06426741 -0.05244149 0.008344586 -0.051084977
000020 f3 f7 80 bd 24 0e 92 be 99 f3 e1 3d d6 bd ec bb
       -0.062972926 -0.28526413 0.11032791 -0.0072247786
000030 04 0c d6 3d 1c 8f 62 3d 49 e6 a2 3d f2 5b 90 3d
       0.104515105 0.05531226 0.0795408 0.07048787
000040 ac 66 b8 3d 1e b6 b9 3d b0 57 ac 3d 68 b1 7e 3e
       0.09003958 0.09067939 0.084151626 0.24872363
000050 71 16 c0 bc 43 b6 03 be 8d d6 87 bd af a9 d1 bd
       -0.0234482 -0.12862496 -0.06632719 -0.10237443
000060 4a 21 21 bd 2b ba 89 3c 3f b2 b8 bd 65 aa e6 bd
       -0.039338388 0.016812405 -0.09018373 -0.11262969
000070 e8 e0 af bd 9c d8 1a 3e 1c fc 3f 3d 56 20 23 3e
       -0.08587819 0.15121692 0.04687129 0.15930304
000080 a7 a1 93 3e c4 49 36 3c 7d a4 f2 3c 0b 81 80 bd
       0.28834268 0.0111259855 0.02961945 -0.06274613
000090 f9 06 0a bc 74 39 81 3d 18 44 d0 bd 15 46 a6 3d
       -0.008424514 0.063097864 -0.10169238 0.08118836
0000a0 b9 c6 ca 3d 93 f4 1e bc 9d c8 07 be 79 c3 9b 3c
       0.099011846 -0.009701866 -0.13260122 0.019014107
0000b0 b3 e6 2d bd 10 9e 20 bd c5 13 1a be 10 9b d6 3d
       -0.04245634 -0.03921324 -0.15046604 0.104787946
0000c0 f1 19 3a be 85 7c e9 bb 91 6b 98 bd d3 d5 07 3e
       -0.18173958 -0.0071254396 -0.07442392 0.13265161
0000d0 09 ad 10 be 18 17 81 bd 5e 24 bd bd 11 70 c9 bd
       -0.14128508 -0.06303233 -0.09235452 -0.09835828
0000e0 82 f9 ab bc 74 a2 f9 bd 1d f2 c9 bd 42 89 5e be
       -0.020992998 -0.121891886 -0.098606326 -0.21732047
0000f0 31 99 a9 3d 3a 30 67 be 62 d2 26 bd c7 a2 57 bd
       0.08281172 -0.2257699 -0.04072798 -0.05264547
000100 c0 67 db 3d f2 6c 05 3d 3e e6 64 3d e7 cf b5 3d
       0.10713148 0.0325746 0.05588364 0.08877545
000110 3a b0 f1 bc 06 e3 3e 3c e7 1d 3a bd 25 5f a2 3d
       -0.029502977 0.011650806 -0.045438673 0.07928304
000120 19 f4 82 3d 32 3c 90 3e a5 b0 d6 bd 31 b7 cb bd
       0.06394214 0.28170925 -0.10482911 -0.0994705
000130 a6 b9 2f be c9 50 b6 bd 0e c7 43 bd 14 2b f3 bd
       -0.17160663 -0.08902127 -0.047797255 -0.11873451
000140 e4 eb 35 be 2f 7e c7 bd 72 81 d8 bd a2 42 33 be
       -0.17765766 -0.097408645 -0.10571565 -0.17505887
000150 7c a3 31 be 21 3f 04 3e c3 e9 94 3d e5 1d c6 bd
       -0.1734752 0.12914707 0.07271149 -0.09673671
000160 99 5c 5f 3d 68 37 9c 3d f6 69 56 3e 58 34 9a bd
       0.054531667 0.076277554 0.20938858 -0.07529515
000170 b6 ed 2d 3d f7 bf e1 3d 4e 1e b5 bd 10 6f fb 3d
       0.042463027 0.110229425 -0.08843671 0.12277043
000180 84 db 15 be 52 63 f5 bd 1e 22 ea 3c 90 25 e3 bd
       -0.1463452 -0.119818345 0.028580721 -0.11091149
000190 1f 10 d8 3d e7 e7 36 3d b9 2d c8 bc ad ab bd bd
       0.1054995 0.044654753 -0.024435865 -0.0926126
0001a0 c6 f4 fa bd 51 9a 9d bd 1e bb 7c bd 1c 9b a4 3d
       -0.12253718 -0.07695449 -0.061701886 0.08037397
0001b0 69 6d 89 bd 5a d9 71 3d 4e df dc 3d 8c e3 a8 3d
       -0.067103215 0.059045173 0.107847795 0.08246526
0001c0 ee 92 88 3c 0b 0b 16 be 8a a6 6c bd 98 42 0d be
       0.016671624 -0.1465265 -0.05777601 -0.13794935
0001d0 61 60 58 3d 28 d5 93 3d d6 c1 f7 bd ad 9c 57 bd
       0.05282629 0.07218391 -0.12097518 -0.052639652
0001e0 50 fa 3a 3d 89 d6 f7 bd db fd 16 be 34 57 17 3e
       0.045648873 -0.12101466 -0.14745276 0.14779359
0001f0 a0 fe ed 3d 20 f1 65 3e 46 40 2d bd 31 3f 63 bd
       0.116208315 0.22455263 -0.042297624 -0.055480186
000200 bf 47 f2 bd 8e fe b1 3c 92 35 cf 3c a2 f6 9b bd
       -0.11830091 0.021727826 0.025294099 -0.07615401
000210 92 04 c8 3d 09 87 e8 bd 21 f3 d3 bc 2d 74 c1 bc
       0.09766497 -0.11353881 -0.025872769 -0.023614967
000220 06 07 44 3d d5 1f b2 3d e1 90 84 3d 2e d4 a5 bd
       0.04785826 0.08697478 0.06472946 -0.08097111
000230 fe 40 66 bd f4 de cb 3c bf 31 9d bc 18 73 34 be
       -0.056214325 0.024886586 -0.01918876 -0.1762203
000240 78 ef 93 bc 6c 2c ba bd ad 66 1b bd f7 82 c5 bd
       -0.018058524 -0.09090504 -0.037939716 -0.0964412
000250 7e b0 c7 3d 54 34 75 bc 54 d1 86 3d e3 a4 19 bb
       0.0975046 -0.014966089 0.06582895 -0.0023444227
000260 8f 87 b6 3c 75 21 db 3d 1f 2a 5a 3d 3b e7 be bd
       0.022281436 0.10699741 0.053262826 -0.093214475
000270 6a 3e 30 3d c9 b5 81 bd 58 c6 81 bd f5 7a ef bd
       0.043028273 -0.06333501 -0.06336659 -0.11693374
000280 df 30 a7 3d ba d2 b1 3c a2 8c ee 3b ef 82 97 bd
       0.08163618 0.021706928 0.0072799483 -0.073980205
000290 d3 96 a0 3d 17 83 c6 bc df e4 52 3d 1f 1e ff 3c
       0.078412674 -0.02423243 0.0514878 0.031142293
0002a0 0e f7 83 bd 7d 67 06 be 9d 41 6b 3d fb 4b 7d bd
       -0.06443606 -0.13125415 0.05743562 -0.06184004
0002b0 7b 8b 97 bd e7 f4 17 3d ef d5 03 be 8f ec 6c 3d
       -0.07399651 0.03709879 -0.12874578 0.057842787
0002c0 3a 80 91 bd 90 71 a2 3d 3f 60 94 bd f0 d7 ec bd
       -0.071045354 0.079318166 -0.0724492 -0.11564624
0002d0 fd 8e 4f bd 8b 38 5d 3c 72 77 15 3d 97 dd de 3d
       -0.050673474 0.01350225 0.036490865 0.10882109
0002e0 72 0b 9e 3d 8f 16 2f be 8b d7 65 bd 6c 93 90 bd
       0.07717027 -0.17098449 -0.05611376 -0.070593685
0002f0 01 7b e8 3c b1 1a cc bd fc b8 cf 3d 0d c7 8e 3d
       0.028378965 -0.099660285 0.10142705 0.0697156
000300 1c 92 a4 3c 16 91 e2 bd 88 cd 9d bd 36 54 f8 3c
       0.020089202 -0.11062829 -0.077052176 0.030313592
000310 f2 b3 11 be 87 bc a2 3d 42 b6 8b bd dc 24 45 3d
       -0.142288 0.07946115 -0.06821872 0.048130855
000320 02 6c c9 3d 7a 53 86 3d 0d 74 d6 3c c0 0b 95 bd
       0.09835054 0.06558891 0.026178384 -0.07277632
000330 b2 bd 58 3d da 02 9a bd 9e a5 32 3c b5 41 c1 3d
       0.052915283 -0.07520075 0.010903744 0.09436361
000340 1e cc c6 3d d8 2a a5 bd 60 62 89 bd 05 e7 cb 3d
       0.09706901 -0.080648124 -0.06708217 0.09956173
000350 e9 f3 ba 3b db b6 f8 bd 53 93 b4 bd c0 bf 5d 3d
       0.005705346 -0.12144252 -0.08817162 0.054137945
000360 a0 6a e1 bd 26 ec 5f 3c 2c 97 ed bd 56 d5 88 3d
       -0.11006665 0.013667142 -0.11601099 0.066813156
000370 aa e6 c8 bd 8a 7b d3 bc a8 44 39 bd 83 a5 88 3d
       -0.09809621 -0.025815744 -0.04523149 0.06672194
000380 2a b3 07 be e3 f6 59 3d e3 a7 90 3d ce 5c bd 3d
       -0.1325194 0.053213965 0.07063272 0.09246217
000390 5e a2 86 bd 5d a9 e0 ba 2b e0 d3 b9 4c c3 6c bd
       -0.06573938 -0.0017140318 -0.00040412074 -0.057803437
0003a0 52 72 8d 3c 5b d4 44 3c fa c9 d8 bd a3 44 b9 3d
       0.017266426 0.01201352 -0.10585399 0.090462945
0003b0 a1 96 f6 3d 44 37 e0 3d b9 c0 2d 3d cd fb f8 3d
       0.12040449 0.10948041 0.042420123 0.12157402
0003c0 ab 89 3c 3d ee cd f3 bd f3 a0 09 be 0b ea 86 3d
       0.046029728 -0.11904512 -0.13440304 0.06587609
0003d0 12 d2 68 3c 9a 25 2d bd d6 7d 20 3d 8d fa 6f 3d
       0.014210241 -0.042272188 0.039182507 0.058588553
0003e0 42 18 74 3d 97 91 7b 3d 5d 34 0c bd 65 91 0f be
       0.059593447 0.061418142 -0.034229625 -0.14020307
0003f0 0b af dd bd d2 8c 29 be 5c 16 74 bc ce 29 f8 bc
       -0.108244024 -0.16557625 -0.014897909 -0.030293372

2.bias f4 [64]
000000 55 7c 40 bc 56 b5 7c bd aa e4 e6 bd 19 f6 2f 3d
       -0.011748393 -0.061696373 -0.11274083 0.042959306
000010 cb e5 c1 bc d6 4e 09 3d 1f af 7a 3b 71 96 68 bd
       -0.023669144 0.03352245 0.0038251353 -0.056784097
000020 c5 ba 8a 3c 7f ed 91 bd 29 13 ab 3c 30 9b f8 3d
       0.016934762 -0.07125377 0.02088316 0.12138975
000030 ff 69 c0 3a 3d d3 a4 bd 00 ff 6c 3e 17 10 14 3e
       0.0014680027 -0.08048103 0.2314415 0.14459263
000040 18 9d 76 3d 09 10 b7 3d f8 64 03 be 47 9b b8 bc
       0.06020841 0.08938605 -0.12831485 -0.02253498
000050 44 d3 a5 bd 39 c6 30 be 37 9d 4a be 37 5b 28 3e
       -0.08096936 -0.17263116 -0.19786535 0.16441046
000060 7f 02 bd bd be 01 af 3b 95 59 7e 3c 94 55 5a bd
       -0.09228992 0.005340784 0.015524288 -0.05330427
000070 83 66 60 bd 9d 2f 8c be f4 a4 a2 3d 8b 74 41 3d
       -0.054785263 -0.27380076 0.079416186 0.047230285
000080 f1 d7 a6 3d 81 34 40 be d4 0b ff bc 42 6b 23 3d
       0.08146656 -0.18770029 -0.03113357 0.03989721
000090 79 c9 2f bd 3f 3a 50 3d 9e 19 be 3c ea 3d 68 be
       -0.04291675 0.050836798 0.023205575 -0.22679868
0000a0 ef 2c 08 3d b8 26 32 bd 28 71 5e 3d 0d 3f 00 3d
       0.033245977 -0.043493956 0.054307133 0.03131013
0000b0 f2 a5 9c 3d 91 4c 83 be d3 07 47 be 01 ac 5a be
       0.07648839 -0.25644353 -0.19436578 -0.21354677
0000c0 00 99 bb 3d ca 0c 3c be 29 9d 47 be e0 9a 0d be
       0.09160042 -0.18364254 -0.19493546 -0.13828611
0000d0 3b ef 6a bd b0 d1 c5 bc 8b a0 c3 ba 70 0d 55 3d
       -0.057357054 -0.024147838 -0.0014925165 0.052014768
0000e0 0d b2 9f 3c 94 de 22 3e c3 94 84 be d2 54 40 be
       0.01949408 0.1590522 -0.25894746 -0.18782356
0000f0 83 5b 1c be 17 0e 1c 3d e0 d5 98 bd 1c 6b 9b 3d
       -0.15269284 0.038099375 -0.074626684 0.07588789

4.weight f4 [64, 64]
000000 a2 a1 39 bd 6e db 7d 3d ff 38 ec 3d 18 8d 86 3c
       -0.04532016 0.061976843 0.11534309 0.0164247
000010 46 7d 90 3d 0a 64 a7 bd 4c f4 c4 bd 8d eb 5b bd
       0.07055144 -0.08173378 -0.096169084 -0.053691436
000020 81 59 e6 bd 6e 50 3a 3e 87 e4 17 3e d7 5a c0 bd
       -0.1124754 0.18194744 0.1483327 -0.09392326
000030 ac 6e 82 3c 85 98 c5 bd 6a eb a0 bd 20 bd 74 bc
       0.015921913 -0.096482314 -0.07857402 -0.014937669
000040 91 d2 a2 3d 75 53 1f be 50 fa 4f bd b3 e1 b2 3b
       0.079503186 -0.1555918 -0.050775826 0.0054590343
000050 9a f4 ad ba 69 ad f6 bb 28 25 18 be b3 45 af 3d
       -0.001327175 -0.0075279963 -0.14857924 0.08558216
000060 e6 d1 f8 bc 6b 13 4c 3d 43 08 af bd f2 6b c7 bd
       -0.030373525 0.049823206 -0.08546498 -0.09737386
000070 f3 46 cd bd a3 2a a1 ba c3 7e d1 bd 0a 98 15 be
       -0.10023298 -0.0012296032 -0.10229256 -0.1460878
000080 35 72 2b 3a 40 eb e0 3d fd 91 c5 bd bc 3a 15 be
       0.00065401505 0.109823704 -0.09646986 -0.14573187
000090 14 a5 46 bd d3 c3 68 3d 5e a2 b1 3d 33 ed ad 3d
       -0.048497275 0.056827378 0.08673547 0.08492508
0000a0 fa 57 d9 3d 0c 85 9f bc ae a7 ed bd 74 f7 e4 3d
       0.10612483 -0.019472621 -0.11604248 0.111800104
0000b0 ec 4d 8f bd b9 d8 e3 bd 8e 1c c1 3c 57 95 a2 3d
       -0.06997284 -0.11125321 0.023573186 0.079386406
0000c0 b7 b6 aa bc ef 36 e3 3c 36 2c 8e bd d9 92 2c bb
       -0.020839078 0.027736155 -0.06942026 -0.0026332645
0000d0 ba 06 d5 3c 52 1c 82 bc c5 6d 79 3c a8 e0 5e bc
       0.026004184 -0.015882645 0.015223925 -0.013603367
0000e0 54 11 f0 bd 5c cd e0 bd ba be 58 3d 84 46 90 3d
       -0.11722055 -0.10976669 0.052916266 0.070447
0000f0 bf a9 de bc c4 12 21 3e 97 2a 7f bc a3 92 5e 3d
       -0.02718055 0.15729815 -0.015574119 0.054339062
000100 f8 23 9e 3c 2a ee cc 3c d0 50 2c 3d 13 13 ff bd
       0.01930426 0.02501591 0.042069256 -0.1245481
000110 24 42 02 3d 95 75 90 3d 62 c9 e3 bd cc 4a ac 3d
       0.031801358 0.07053677 -0.11122395 0.08412704
000120 99 f5 b9 bc 67 e4 80 3e 63 43 26 3e db 8b 7e 3c
       -0.022700118 0.25174257 0.16236643 0.015536274
000130 8c cb 61 bd bf b4 a0 3d 09 2d bb bd 03 ae 67 bc
       -0.055125758 0.078469746 -0.09139449 -0.014140609
000140 4d c6 f1 3c 26 2b a1 be 96 a9 82 bd 7f 7b 99 3c
       0.029513502 -0.31478232 -0.06380002 0.018735645
000150 1d 0c 3c bd 20 f8 b8 3d 1c 8a 2d 3d fd d8 8f bd
       -0.04590999 0.09031701 0.04236804 -0.07023809
000160 c6 d7 b3 bd f8 88 55 3d 54 21 cc 3b 80 bc d3 3c
       -0.0878139 0.052132577 0.006229559 0.02584672
000170 28 1e 29 3d 09 5f 16 3d bf f1 0c bd ba bd 89 3c
       0.041288525 0.036711726 -0.034410235 0.016814101
000180 6b 61 d3 bc 39 c7 7a bd 0c 64 df 3d 11 7c d2 3c
       -0.025803288 -0.06122515 0.10907754 0.025693925
000190 20 f8 85 bd 8b 4d bc bd 33 6e 7f 3d ca 54 77 3d
       -0.06541467 -0.09194478 0.062360954 0.060383596
0001a0 ec cc 0e 3d fc fc 0f be 9e a6 01 bd fa de 8d bd
       0.034863397 -0.1406135 -0.03165304 -0.06927295
0001b0 27 fd e0 bc c0 c9 ca bd 2e af 65 bd 64 ca e1 bd
       -0.027464462 -0.09901762 -0.056075267 -0.11024931
0001c0 04 5b f6 bd df a0 f0 3d d4 05 05 be 2b e3 71 3d
       -0.120290786 0.11749434 -0.12990505 0.059054535
0001d0 9d 85 90 bd 2a 98 71 bd d2 34 07 be d6 05 70 ba
       -0.07056735 -0.058983006 -0.13203743 -0.0009156143
0001e0 e3 56 5f bc 01 35 b1 3d 72 42 fb bc 43 61 98 3d
       -0.013631555 0.08652688 -0.030671332 0.07440426
0001f0 4e e3 be bd 2a 82 6a 3d 4c 64 39 bd c8 f8 c4 bd
       -0.09320699 0.05725304 -0.045261666 -0.09617764
000200 82 06 f3 3d 66 2e d7 bd 1e 12 3c 3d 02 87 55 bd
       0.11866476 -0.10506897 0.045915715 -0.052130707
000210 6d 82 48 3c 99 ef 1e bd d8 3e 2a be da c7 72 bd
       0.012238127 -0.038802717 -0.16625535 -0.059272625
000220 6b c3 2a be b1 58 24 be 94 70 47 3e 0c 52 07 bc
       -0.16676109 -0.16049458 0.19476539 -0.008259308
000230 db 59 ad 3b 26 33 10 3d a0 21 99 bc a3 66 9d bb
       0.0052902526 0.03520503 -0.018692791 -0.004803495
000240 78 61 57 3d a7 73 55 3d 9b 1e b4 bd 30 24 e5 bd
       0.052583188 0.052112248 -0.087949 -0.11188543
000250 16 00 ce 3d fa f8 84 3c fb 17 2f bd 91 44 81 bd
       0.1005861 0.016232003 -0.04274748 -0.06311906
000260 a8 0e dd 3a cb f7 9e 3c 4e cb e1 3d bd e5 50 bd
       0.001686533 0.019405266 0.110251054 -0.051000345
000270 c9 d5 9f bb 34 55 e0 bd 8d 23 51 bd e2 c8 18 bd
       -0.00487778 -0.10953751 -0.051059294 -0.03730095
000280 7e 54 ce 3d d4 6f e0 3c 60 31 b9 bc d7 fa f9 3d
       0.10074709 0.027397074 -0.022606552 0.12206047
000290 8a d6 80 3d e0 95 3c bd a3 c7 79 bd 64 65 28 bc
       0.0629092 -0.04604137 -0.060981404 -0.01027808
0002a0 52 bd 3f 3d 4a b6 04 3d 0a 32 e5 3d 09 e0 31 3e
       0.04681141 0.032400407 0.11191185 0.17370619
0002b0 b0 a6 c3 3d c5 0a bd 3c bd be cd 3d c4 d2 15 3d
       0.095532775 0.023076424 0.10046146 0.036577955
0002c0 0d c7 d0 3d 3b d9 8d bc a8 c1 82 bc c6 a7 36 3b
       0.10194216 -0.017315498 -0.015961483 0.0027870997
0002d0 9d 67 09 3d 9a 9f 01 3d 4f 9f a8 3d b2 4b 6e 3d
       0.03354608 0.03164635 0.08233511 0.058177657
0002e0 a4 03 cf 3b 99 a6 24 3e a3 f1 14 bd 39 ca be 3c
       0.0063175727 0.16079177 -0.036363255 0.023289787
0002f0 25 b0 4e 3c c6 6b 1f be 22 f2 1b bc cf 44 17 bd
       0.012615238 -0.15568456 -0.009518178 -0.036930855
000300 dd 5e 0b be ba 81 db 3c 28 11 03 be 17 14 e2 bc
       -0.13610406 0.026795257 -0.12799513 -0.02759747
000310 c9 f2 c0 bc c4 3f 23 bc e9 cd 3b 3c 24 9a 05 bb
       -0.023553269 -0.009963933 0.011462667 -0.0020386064
000320 b1 13 69 bd 59 f8 93 3d db 25 ae 3c a9 cc c8 3d
       -0.056903545 0.07225103 0.021258285 0.09804661
000330 b0 ba 8f 3d 21 c9 e2 3d aa 55 aa bb 0d 55 30 bd
       0.0701803 0.110735185 -0.0051982002 -0.04304986
000340 8e de dc bc ce 37 8e bd ad 15 30 bc bc 0c e9 3c
       -0.026961591 -0.06944238 -0.010747355 0.028448455
000350 0a 42 99 bc 3c 5e 99 bc 18 d8 0e bb 1e fa c9 bd
       -0.018708248 -0.018721692 -0.0021796282 -0.09862159
000360 0d 08 e8 3c 59 e1 21 bd 62 f1 41 3d 76 45 13 bd
       0.028324151 -0.03952155 0.04734934 -0.035954915
000370 e2 26 ca 3c 3c 40 8c bd 83 f4 3f bd bd a1 15 bd
       0.024676744 -0.06848189 -0.046864044 -0.0365312
000380 fa 09 d7 bd b0 59 92 bd 60 a0 a5 38 44 e4 00 3d
       -0.1049995 -0.07146013 7.897685e-05 0.03146769
000390 04 f8 cf 3c 0c c2 a5 bd 3f 36 41 3d a3 a9 d8 3d
       0.025386818 -0.08093652 0.047170874 0.10579231
0003a0 d6 8a 32 bc 9d f0 2b 3d 0a 3f a6 3c 64 e3 45 3d
       -0.010897359 0.041977514 0.020293731 0.04831256
0003b0 38 f1 ce 3d 4d b8 d6 3c b2 8d d0 bd ab aa 17 bd
       0.101046026 0.026210928 -0.10183276 -0.037027996
0003c0 05 cd a0 3c cf 3d 31 bd 28 1b 29 3c f3 2c cd 3c
       0.01962901 -0.043271836 0.010321416 0.025045848
0003d0 4f c2 06 be 24 55 c6 bd b4 e7 19 bd b8 98 d7 3d
       -0.1316006 -0.09684208 -0.037574485 0.10527176
0003e0 93 f1 b4 3d 6b 46 c3 bd 94 fb b5 3d d7 de de 3d
       0.08835139 -0.095349155 0.08885875 0.10882347
0003f0 3c 3e b0 3d 8a dc 45 3d 3d 81 a5 3d 92 88 ea bd
       0.0860562 0.048306026 0.08081291 -0.1145183

4.bias f4 [64]
000000 06 e1 ba bc 6d e2 1a bd df 4d ae 3b 38 3b 71 be
       -0.022812378 -0.037813593 0.0053193416 -0.23557746
000010 31 38 cd 3c 4b d5 f3 bd e0 8a f2 bb 31 33 fd 3d
       0.025051208 -0.11905917 -0.007401809 0.123632796
000020 82 7d 4f bc 9e e2 b8 be bd 41 30 be 88 63 d5 bb
       -0.012664201 -0.36110395 -0.17212577 -0.006512109
000030 a6 96 1e be 38 c0 16 bd 06 a7 08 be d4 8b 48 3d
       -0.15487155 -0.036804408 -0.13344964 0.048961475
000040 3c ba 90 3d 4a 18 3c be f6 0a 68 bc 12 6b 21 bd
       0.070667714 -0.1836864 -0.01416277 -0.03940875
000050 a5 ca f5 be 6f 93 f5 bb e2 72 15 3e b5 28 14 bd
       -0.48006168 -0.007494382 0.14594606 -0.036171634
000060 b2 ea 35 be 20 91 3e bc d9 e7 82 3d a6 a6 d0 bc
       -0.1776531 -0.01163128 0.06391878 -0.02547009
000070 a0 08 c6 3d fd 82 3a 3e 1e bd 5e ba 30 6e ec 3c
       0.09669614 0.1821403 -0.00084968086 0.028861135
000080 56 d6 49 bd d4 6b 17 3e 58 85 5f bd f8 97 bf bc
       -0.049276672 0.14787227 -0.054570526 -0.023387894
000090 5c bd 31 be d5 42 aa bd 3f c3 80 bd 36 1c 25 be
       -0.17357391 -0.083135284 -0.0628724 -0.16124043
0000a0 c4 98 8d 3c 1a b4 61 3e 32 99 7f 3c b8 25 81 be
       0.017284758 0.2204136 0.015600489 -0.2522409
0000b0 0f b0 c5 3d 03 ac 40 be 9f 16 aa 3d 96 b6 a9 3d
       0.09652721 -0.18815617 0.08305096 0.08286779
0000c0 a3 40 9e 3d 7a 6f 8c be df eb a2 3d c5 41 6a 3d
       0.07727172 -0.274288 0.07955145 0.05719163
0000d0 02 a8 4f be 75 da 84 3d 40 12 03 bc 22 ab d9 3d
       -0.20278934 0.0648698 -0.007999957 0.10628344
0000e0 92 2b 79 3d f8 ac dd 3d 8d e1 a6 bd 7d 2b 05 bd
       0.060832568 0.10824007 -0.08148489 -0.032512177
0000f0 c9 ad 07 3d 9c 38 04 be 44 8c d4 bc 7e 0c 05 be
       0.03312472 -0.1291222 -0.02594579 -0.12993047

6.weight f4 [64, 64]
000000 83 bc a8 bd ba 66 36 bb 7d 0a 8f 3d cc f8 53 bd
       -0.08239081 -0.0027832226 0.06984422 -0.051750943
000010 86 62 aa 3d 13 be 6c bd d0 8e 96 bd 6d 6d f3 3d
       0.08319573 -0.057798456 -0.07351458 0.11886106
000020 f3 7e a5 3d 2f de b7 3d b2 21 42 3d 0d 0f 31 bc
       0.08080854 0.08977925 0.047395416 -0.010806811
000030 60 42 17 bd 4e d6 c6 3d 9b ff 09 3e 22 95 2a 3d
       -0.036928535 0.09708844 0.13476412 0.04164613
000040 2f 31 20 bd c9 b4 d3 3d cc 59 1f bd 5a 6e 61 3d
       -0.039109405 0.103372164 -0.038903996 0.05503688
000050 d4 12 b9 3b 0e cf 9c 3d 69 f7 98 bd d1 46 9b 3d
       0.0056479964 0.0765668 -0.07469065 0.075818665
000060 9b 5d cd 3d 50 38 0c bd fe 5a e9 3c 96 00 8d 3b
       0.100276195 -0.03423339 0.028485771 0.0043030484
000070 01 65 f9 3d a8 34 c5 bd ed 38 1a 3c 35 9f f0 3c
       0.12177468 -0.09629184 0.009412986 0.02937279
000080 fc 4b b2 3d 00 ea 92 bd b9 a6 db 3d 00 62 23 3c
       0.08705899 -0.07173538 0.10725159 0.0099720955
000090 ed e0 85 3d 20 3d 90 bd 11 36 31 bd c5 2e 19 bd
       0.06537042 -0.07042909 -0.043264452 -0.03739812
0000a0 70 43 c8 3d 9b 8f c3 3d a5 d5 15 3d dd 79 be 3d
       0.09778488 0.09548875 0.0365807 0.09300587
0000b0 20 26 85 bd 24 75 f6 3d ef 47 15 3c c6 b1 c7 bc
       -0.065014124 0.120340616 0.009111389 -0.024376761
0000c0 1c dd 77 bd 3c 0b 77 3d 6a 47 60 3c 8e e7 36 bc
       -0.0605136 0.06031345 0.013688901 -0.011163605
0000d0 80 6a 46 3b 7f 71 ba 3d 53 ab 3b 3c 81 b5 b4 3a
       0.0030275881 0.09103679 0.011454421 0.0013787003
0000e0 3b 23 ac 3d 76 67 43 3e 47 12 3b 3d 3c 77 c0 3a
       0.08405157 0.19082436 0.045671728 0.0014683972
0000f0 30 ad e2 3c b7 0f 8c 3d 37 4a 66 bc ee 4f 78 bc
       0.027670473 0.06838935 -0.01405578 -0.0151557755
000100 cd 52 d9 3d 7d ac 8e bd 31 55 a9 39 07 96 2a 3d
       0.10611496 -0.06966493 0.00032297664 0.041646983
000110 62 85 00 3d 56 aa 3f 3b 2f 07 34 bd 8d 52 d9 bd
       0.031377204 0.0029245815 -0.043952163 -0.106114484
000120 6a 53 d5 bd 6f 1e b1 bd ca 3a 53 bc 31 a1 60 3c
       -0.104163006 -0.08648383 -0.012892434 0.013710306
000130 05 11 52 bd 3c 82 52 bd f7 ed 79 3b da 21 91 3d
       -0.051285762 -0.051393732 0.0038136223 0.07086535
000140 30 b9 cc 3d c4 04 03 be f6 82 59 bc ee 92 d2 3a
       0.09996259 -0.12794787 -0.013275852 0.0016065517
000150 c0 af e1 bd 67 1c 39 3d 0f 97 cf bd ae c3 c3 bd
       -0.1101985 0.045193102 -0.10136234 -0.09558807
000160 c9 83 46 bd 8d 63 1c bc 65 01 63 ba 58 bb 86 bd
       -0.048465524 -0.009545219 -0.00086595706 -0.06578702
000170 cf e5 96 bd f4 81 34 bc 86 56 19 3d cf 10 05 3e
       -0.07368051 -0.011017311 0.03743603 0.12994693
000180 59 01 bb bc 86 cc 09 be c2 fe 9d 3b 3e 7c 9d bd
       -0.022827791 -0.13456926 0.0048216293 -0.07689713
000190 8e 2e ab bb 45 81 55 bd 20 c2 9e bd 91 bd 48 3d
       -0.0052240556 -0.052125234 -0.0775187 0.04900891
0001a0 dd c1 23 bd 8c a6 76 bd 9b b7 ca 3d cc ce 23 3d
       -0.039979804 -0.060217425 0.09898301 0.03999214
0001b0 19 0f 76 bd ed c0 d9 3d 11 9a 94 3c e2 cf 94 bc
       -0.060072992 0.10632501 0.01813987 -0.018165532
0001c0 34 eb 55 3c 4e 56 0d bd a1 bf 98 3d 25 77 80 bd
       0.013056565 -0.034506135 0.07458425 -0.06272725
0001d0 d0 fb 08 3e bb d3 d0 3d 82 46 ea bc 17 0a 74 bc
       0.13377309 0.101966344 -0.028598074 -0.014894984
0001e0 4f 99 16 3d 1c 4e a1 bd 1d 39 b3 3c b9 bc 93 bd
       0.0367673 -0.07876226 0.02187782 -0.0721373
0001f0 4a ac cf bd e4 0c c7 bc 0d b6 54 bd 0d 83 6e 3d
       -0.101402834 -0.024298139 -0.05193143 0.05823045
000200 84 aa d0 3d 2d 29 0c 3e 25 4a d3 3d e5 72 3f 3d
       0.10188773 0.13687582 0.10316876 0.04674043
000210 1d 7b 61 3d 7d 44 7f bc c5 b2 2b bd 50 6a 13 bd
       0.05504905 -0.015580294 -0.041918535 -0.03599006
000220 55 51 76 3d db 14 c9 3d 38 d8 91 bd 62 f5 f4 3d
       0.060136158 0.09818431 -0.071213186 0.119608656
000230 86 a9 ed 3b 09 30 1d bd 03 3f e8 3c c9 82 d0 bd
       0.007252875 -0.038375888 0.028350359 -0.10181195
000240 50 e3 0e bd 35 e7 f1 3d a3 b9 e2 bd b4 16 0d be
       -0.03488475 0.11811677 -0.11070564 -0.13778192
000250 76 0a 79 3c 35 05 75 3d 2b 49 60 bc 59 39 a0 bc
       0.015200248 0.05981942 -0.01368932 -0.019558595
000260 6b be 95 bd 3a 19 a9 3d fe 1b 07 3e 8f c4 c7 3d
       -0.0731171 0.08256765 0.13194272 0.097542875
000270 1d 4b 35 3a 0b 2b 50 3e 38 4a e7 3c 92 ad 32 bd
       0.0006915795 0.2032892 0.028233632 -0.04362256
000280 e5 8c 5a bd 76 e6 24 bd 69 c1 bf 3d 3c 1d a8 bd
       -0.053357024 -0.040258847 0.09363062 -0.08208701
000290 63 07 aa bd 76 7d d5 bd 90 0a 4a 3c b9 a0 41 3c
       -0.0830219 -0.104243204 0.01233162 0.011818104
0002a0 15 4c e8 3b d9 2a 05 bd 93 2d 32 bd e7 6a 9f 3d
       0.007089148 -0.032511566 -0.043500494 0.07784062
0002b0 d7 53 d0 3c 16 35 55 3d 7a f5 98 3d 7e 1d f3 3c
       0.025430603 0.05205258 0.07468696 0.029677149
0002c0 bb f4 a8 bd e1 06 d5 3c 93 99 19 3e 72 19 16 be
       -0.08249804 0.026004257 0.1499999 -0.14658144
0002d0 59 e5 d8 3d ec 4b 0d be 6e 3d e7 3d 4b ea a7 bd
       0.105906196 -0.13798493 0.11291014 -0.08198985
0002e0 55 b3 62 bd a6 00 1c be 4d 40 f5 bc 13 a7 51 3d
       -0.055346806 -0.15234622 -0.029937888 0.051184725
0002f0 03 44 b7 3d c0 2a b6 bd 3e f6 be 3d 33 f9 ac 3d
       0.08948519 -0.08894873 0.09324311 0.084459685
000300 f9 d9 52 bd de 2f ab bd ef ce 1c 3d 0e 9e c8 bb
       -0.051477406 -0.08358739 0.038283285 -0.006122357
000310 70 89 d1 3d 7e 0b d0 bd d3 9b c2 3d 71 70 52 3c
       0.10231292 -0.10158442 0.09502377 0.012844191
000320 40 0a 5f 3c 13 60 16 3d 68 b7 56 bd 6d 65 0c bc
       0.013613284 0.036712717 -0.052421004 -0.008569104
000330 e9 cf c2 bd 2f 7c 15 be b5 de 68 3d 41 9a 9c bc
       -0.09512312 -0.14598154 0.056853015 -0.019116523
000340 ff fd 20 3d 02 42 82 3d 17 fa 04 bd 99 bf 69 3d
       0.03930473 0.06360246 -0.032465067 0.057067487
000350 d3 25 97 3d 95 ab af 3c 53 4a be bd 50 41 ca bd
       0.07380261 0.021444121 -0.0929152 -0.098757386
000360 59 32 fc 3c c4 69 db 3c bf be c1 bd 7a 44 59 3d
       0.030785726 0.026783831 -0.0946021 0.05304382
000370 3a 5a cc 3b c5 7e df 3d d5 82 f9 3c 67 24 b9 3d
       0.006236342 0.10912851 0.030457893 0.09040146
000380 c7 d4 2f 3c b5 53 54 bd 9a 42 be bd 01 56 ea bd
       0.010731882 -0.05183764 -0.09290047 -0.11442185
000390 f5 d2 f0 bd f8 51 ae bd ff 59 cf 3d 3f df d0 bd
       -0.11758987 -0.08511728 0.10124587 -0.10198831
0003a0 3c c6 19 3e 11 3d dc 3a 06 ef b2 bd 12 6b 08 bd
       0.15017027 0.0016802867 -0.08736996 -0.033305235
0003b0 a4 9d 53 3d fe ec a1 bd e9 22 cb 3d b8 37 af bd
       0.05166401 -0.07906531 0.09918768 -0.085555494
0003c0 9a bc db 3d 6d 2a 0b be 4d 86 22 be db 0d c9 bd
       0.10729332 -0.13590403 -0.15871544 -0.09817096
0003d0 29 d9 84 3d 07 e2 d6 bb 53 71 a0 3d 8f a7 f9 bc
       0.064867325 -0.0065577063 0.07834115 -0.030475406
0003e0 25 34 ea bd 1b 3f c9 3d 69 e9 d0 3c fc c0 c7 bd
       -0.11435727 0.098264895 0.025501924 -0.09753606
0003f0 22 48 4b 3d 0a e1 3b 3c 87 71 95 3d 1d 78 f3 bd
       0.049629338 0.011467228 0.07297044 -0.11888144

6.bias f4 [64]
000000 af cb 05 be 7d 44 65 bc e5 0c 05 be 7d 6b b7 bd
       -0.1306598 -0.01399338 -0.129932 -0.08956049
000010 47 4f ae 3c 05 f6 58 3c 05 7d 0e 3e a5 93 0e bd
       0.021278037 0.013242249 0.13914879 -0.034808774
000020 e2 43 fa 3d a6 89 c2 bd 8a ea ee 3d f1 bf ed bd
       0.12219979 -0.094989106 0.116658285 -0.116088755
000030 5b 33 6e 3e 61 fe 94 bc d0 7f ac 3d 92 90 36 3d
       0.23261778 -0.018187704 0.08422816 0.044571467
000040 2c d7 0e 3e 65 ab 39 bc c9 8a 9a bc b7 e0 af bc
       0.13949269 -0.011332368 -0.018865006 -0.021469457
000050 89 03 bb 3d f9 76 62 bd e1 06 3d be 65 01 71 bd
       0.09131534 -0.055289242 -0.18459655 -0.05883922
000060 8d d9 04 3d b1 e1 61 bd bd 35 73 be 9c 7e 6a 3d
       0.032434035 -0.055146877 -0.23750968 0.05724965
000070 63 ba 64 3d 71 8e 93 3d 48 be 9c 3d 17 bf dd 3c
       0.055841815 0.07204903 0.07653481 0.027068658
000080 dd 1a 9a bd 3d cd 38 3e 59 c9 14 be 1a 48 8c bd
       -0.07524655 0.18047042 -0.14529933 -0.0684969
000090 e7 9e ba 3a ce 0d 74 bd 7d 0b 2c 3e 6e d4 7e be
       0.001423803 -0.059583478 0.16801257 -0.24885723
0000a0 2e f0 c8 bd 4f d2 59 be 70 1a e3 3d 71 58 f9 3d
       -0.09811436 -0.21271633 0.11089027 0.12175072
0000b0 28 cd 9e 3d 59 ba 9d bd 4f 7d 8c bd 5a 68 68 be
       0.07753974 -0.077015586 -0.06859838 -0.22696057
0000c0 50 49 7c be b4 64 5a be 06 89 ba 3c b2 c3 28 be
       -0.24637341 -0.21327478 0.022770416 -0.16480902
0000d0 1f 22 bb be d0 f3 0a 3e 6a 8a 17 3e fc d8 80 3d
       -0.3654947 0.1356957 0.14798895 0.062913865
0000e0 fc e8 27 bd 8f 51 ce 3d 7d f0 96 be 10 37 4b be
       -0.040993676 0.1007415 -0.29480353 -0.19845223
0000f0 83 d8 d9 bd 4a d8 7e bd d8 35 a3 bd 55 e3 c0 bd
       -0.106369995 -0.062217988 -0.07969254 -0.0941836

8.weight f4 [64, 64]
000000 b1 bd d0 3c 10 bb cb 3d c4 24 9f bb 15 60 57 3d
       0.025481077 0.09947789 -0.0048566777 0.052581865
000010 4e 76 20 3e ce 10 92 bd 08 26 d5 bd 04 b2 ad bc
       0.1567013 -0.071321115 -0.104076445 -0.021203049
000020 b9 1b 7b 3d 2c 72 d9 bd 68 59 84 3d 94 c6 6a bd
       0.061305735 -0.1061748 0.064623654 -0.057318285
000030 ab 32 d2 3d 0e 16 95 bd eb 67 3c 3d 51 97 95 bc
       0.102635704 -0.07279597 0.04599754 -0.01826063
000040 52 98 0b 3e 52 f0 25 3c 18 ce f7 bc f7 0b 62 bd
       0.13632324 0.010128098 -0.03024964 -0.05518719
000050 77 e7 85 3e 12 9b e9 3c 98 28 fd bd ac f7 d4 3d
       0.26153156 0.028516326 -0.12361258 0.10398802
000060 94 40 01 be 90 cd 66 bd 4f 15 c7 bd 87 78 70 3d
       -0.12622291 -0.056348383 -0.09720861 0.058708694
000070 db 41 ab 3d 87 91 17 be 5f 3f 5d bd 7c c8 ec bd
       0.0836217 -0.14801608 -0.054015514 -0.11561677
000080 30 5b 75 3d 93 4b 20 3e 3f 2f 18 bd a7 40 16 3d
       0.059901416 0.1565383 -0.037154432 0.03668275
000090 98 28 c0 3c f7 7f 11 bc bf b7 20 3e 54 1d 74 bd
       0.023456857 -0.008880607 0.15695094 -0.059598282
0000a0 82 b0 2e 3d 67 00 e6 bc 0c cd bd bb 60 ae cd bd
       0.0426488 -0.028076364 -0.0057922658 -0.10043025
0000b0 fa 92 d5 bc 8c b7 0a 3c 94 15 7b bd 25 12 87 bd
       -0.02607106 0.008466613 -0.061299875 -0.06595258
0000c0 27 0d 33 bd 19 8a e1 bd 4b cc e1 3d 4e af 35 bd
       -0.043713715 -0.11012668 0.11025294 -0.044356637
0000d0 59 89 70 bd 69 30 bd 3d b1 0c 40 bd 79 c5 d9 bd
       -0.058724735 0.09237749 -0.046887103 -0.10633368
0000e0 8a b2 93 bd 38 d8 bf bd 92 56 8c bd e3 0b eb bd
       -0.07211788 -0.09367412 -0.068524495 -0.114768766
0000f0 f3 04 7d bc 5d ef 80 3d 3b 19 65 bd fa 29 bd 3c
       -0.0154430745 0.06295655 -0.055932265 0.023091305
000100 33 25 d3 bd 9e 77 d9 bc f6 3a 4d bd b8 e4 16 3e
       -0.103098296 -0.026546296 -0.050105058 0.14735687
000110 f4 70 ca 3d 4d d3 f5 bd 0e 9e 38 bd 25 34 63 bc
       0.09884825 -0.12003193 -0.045072608 -0.013867413
000120 70 5c b9 bd 1f ab 90 bd 50 b8 3a bc e8 40 fa bc
       -0.09050834 -0.07063889 -0.011396483 -0.030548528
000130 5d c7 c8 3d 14 43 07 3d 81 d1 95 3d 23 38 d7 3d
       0.098036505 0.033022955 0.0731535 0.10508754
000140 a4 0f d2 3d 64 47 3a 3d 86 2f 8e 3d f6 fd db 3d
       0.102568895 0.04547824 0.06942658 0.107417986
000150 71 66 d1 bd 00 50 0e bc 7b 38 f2 bd 39 47 d1 3d
       -0.10224617 -0.008686066 -0.11827179 0.10218663
000160 5c a0 59 3b f4 f5 23 3d e1 60 dd bd 5a ff b5 bd
       0.0033207154 0.04002948 -0.10809494 -0.08886595
000170 94 88 aa 3d 9a 91 ea 3d 94 2f 5a 3a 54 cd 3b 3c
       0.083268315 0.114535525 0.000832313 0.011462528
000180 d0 8a 1f 3d 67 c2 cd 3d 6b 0f eb bd 53 b8 aa 3c
       0.03895074 0.10046845 -0.1147755 0.020839846
000190 7c c0 79 3d af df b6 3d 45 73 1c be 80 89 a1 bd
       0.060974583 0.08929383 -0.15278347 -0.07887554
0001a0 73 df c4 bc 67 8f b0 bd a6 f3 52 bd 25 26 6e bd
       -0.02403233 -0.08621102 -0.051501893 -0.058141846
0001b0 52 7a 0c 3d 03 19 03 3e 01 01 ce bd 86 7f 93 bd
       0.03429634 0.1280251 -0.10058785 -0.072020575
0001c0 52 3c cf 3d d6 d6 30 3d 87 90 e3 bd 8e 2e 28 3d
       0.10118927 0.043173634 -0.11111551 0.041060023
0001d0 6f 78 96 3d d9 a2 45 bd 0c 5e c5 3b 73 9f 81 3d
       0.0734719 -0.048251007 0.006023174 0.06329241
0001e0 62 17 c4 bc f6 49 e6 bd 3d eb 56 bd e9 99 10 3d
       -0.023936931 -0.11244576 -0.052470434 0.03530303
0001f0 19 b2 e6 3d 9d 96 d0 3c f8 fb 87 3d e8 b7 db bc
       0.11264438 0.025462443 0.06639856 -0.026821092
000200 8b be f3 bc 2a 96 03 3c da b0 e9 bb f3 8d 60 bc
       -0.029753944 0.008031407 -0.007131678 -0.013705718
000210 ca ec 95 3d f1 5d 1a bd 45 01 84 3c 16 6a cb 3d
       0.073205546 -0.037687246 0.016113887 0.09932344
000220 91 2f fc bd 8d 3c a8 3d 3f 28 0b 3d 97 0a 85 3d
       -0.1231376 0.08214674 0.03397393 0.064961605
000230 93 82 25 bd 1b 65 ca b9 d5 65 bd bd ad 88 62 3c
       -0.04040773 -0.00038603772 -0.092479385 0.013826531
000240 2b 39 dd 3d cd a2 06 bd 4d d8 f6 3c b4 64 9c 3c
       0.108019195 -0.032870103 0.030132437 0.019090988
000250 82 05 08 be a4 ee 8b bc d4 26 40 bc 13 eb a3 bc
       -0.13283351 -0.017081566 -0.011728007 -0.020009553
000260 c9 9f 88 3c c9 04 09 bd 1d 59 c9 bd b4 05 ea 3d
       0.016677754 -0.03345183 -0.0983145 0.11426869
000270 bd 20 3e 3d 59 78 c2 bd 47 31 97 bc e2 68 ac bd
       0.04641794 -0.09495611 -0.018456114 -0.08418442
000280 0f 32 42 3c ad 77 8c bd 56 2a b5 bd 1d 64 41 3d
       0.011852755 -0.06858764 -0.088459656 0.047214616
000290 8f 80 e7 bd fd c1 93 bd c0 5b fc 3c de e9 a8 3d
       -0.113038175 -0.07214735 0.030805469 0.082477316
0002a0 e4 a5 e6 bd 6d 39 03 be b9 02 84 3d dc ae 99 bc
       -0.1126211 -0.12814875 0.06445832 -0.018760137
0002b0 33 48 20 bd 01 b8 4b 3d 8d f1 db bc 78 ef d2 bd
       -0.039131355 0.049736027 -0.026848579 -0.10299581
0002c0 71 bb d4 bd f2 44 22 be cd c3 23 bd be e2 20 bd
       -0.10387314 -0.15846613 -0.039981652 -0.03927874
0002d0 d6 49 4c 3d 24 b4 ca 3c 52 a0 89 bd ca 37 a6 3d
       0.049875103 0.0247441 -0.06720032 0.0811611
0002e0 bc b6 b0 bc 93 57 e2 bd d8 7d 5e bd d8 1f d6 bd
       -0.02157151 -0.1105186 -0.054319233 -0.104552925
0002f0 5e a7 b7 3d 41 2c d8 3d 2d 21 94 bd 74 7c 26 3d
       0.0896747 0.10555316 -0.0723289 0.04064603
000300 86 73 d4 3d 2a 5d af bd 16 e3 09 3c f9 41 e6 bd
       0.10373597 -0.085626915 0.008415958 -0.11243052
000310 cd c6 25 bd b1 6c da 3d e6 ba c3 bd 9d 45 cb bd
       -0.040472794 0.106652625 -0.095571324 -0.09925387
000320 ef 3f a6 3c 10 94 4e bd c1 3f bf bd d1 b8 9e 3d
       0.020294158 -0.050434172 -0.09338332 0.07750095
000330 76 33 6a be 99 d6 ea bd fc 2a bf bd 40 c0 a0 3d
       -0.22871193 -0.114667125 -0.093343705 0.07849169
000340 f2 11 44 3d 49 0f 7f bd 90 f0 e4 3d 64 51 a0 3d
       0.047868676 -0.062270436 0.11178696 0.07828024
000350 7f 2a 5d bc 77 9f 1e be 56 5e d7 bd 80 c5 c5 3d
       -0.013498901 -0.15490519 -0.1051604 0.09656811
000360 db d4 e3 3d 25 fd bb 3d 93 df d2 3c 9b ed 74 3c
       0.11124583 0.09179143 0.025741374 0.014949228
000370 79 88 b1 bd 59 79 7c bd a7 ab 60 bd 02 03 67 3d
       -0.08668608 -0.061639164 -0.0548512 0.056399353
000380 86 1c 32 bd 0c d6 8d bd e1 da 82 3d ea ca ee 3d
       -0.043484233 -0.06925592 0.06389404 0.116597965
000390 86 eb 02 be 2c 20 93 bd c7 4d 84 bb 18 69 f7 3b
       -0.12785158 -0.07183871 -0.004037592 0.00755037
0003a0 41 0d ae 3d 6b df 96 bc 63 e6 14 bd c8 63 73 bd
       0.08498622 -0.01841708 -0.036352526 -0.05942133
0003b0 d5 e6 8e bc 83 b6 e5 bc 6a 90 65 bd a0 a8 ec 3d
       -0.017444054 -0.02804113 -0.056045927 0.115556
0003c0 78 53 be 3d 10 17 46 bd df b5 d6 bd ea 7d c0 bd
       0.09293264 -0.048361838 -0.10483908 -0.09399016
0003d0 99 1a 8d bd 8b 76 a9 bd 00 18 5c 3d eb 80 71 bd
       -0.06889839 -0.082745634 0.053733826 -0.058960836
0003e0 58 3a ca 3c 2d c5 a7 3d 3a e2 16 3d a7 d2 55 3d
       0.024686024 0.08191905 0.03683684 0.052202847
0003f0 0a 03 c6 bb 90 d3 ca 3c 5c 06 c6 bd 8e f2 b4 ba
       -0.0060428428 0.024759084 -0.09669182 -0.0013805197

8.bias f4 [64]
000000 96 6e fd 3d 44 95 1b 3d 11 77 d1 bd 53 19 45 be
       0.12374608 0.037984148 -0.10227788 -0.19247942
000010 6c bd d1 bb 50 7b 85 3c 70 42 9b be de 14 ad 3c
       -0.0064007547 0.016294152 -0.30324125 0.021128114
000020 6b bf 13 be 9f 4a 7e bd a7 64 b5 3c 35 b8 84 3d
       -0.14428489 -0.062082883 0.022142721 0.06480447
000030 42 45 10 be a0 02 33 bb 0d c9 c9 3c d1 b6 ef bc
       -0.1408892 -0.0027314797 0.024632001 -0.029261978
000040 ae cb 83 3d f5 2b a0 3d b7 e1 6f be 6d ed 48 bc
       0.06435333 0.07820884 -0.23425947 -0.012263638
000050 7b e4 2d 3d ed fd 27 bd 51 11 c0 bb 2f a7 1e be
       0.042454224 -0.041013647 -0.0058614393 -0.15493463
000060 b4 82 a1 bd 3f 47 16 be 57 a4 3d 3d dd fc 4d be
       -0.07886258 -0.14675616 0.046299305 -0.20115991
000070 fb 83 b1 bd 39 c9 f2 bc 1a c8 1f be d2 63 bf bc
       -0.086677514 -0.029636966 -0.15603676 -0.023363028
000080 08 b8 9b 3a 56 e6 69 3d de e3 a2 bd c3 fc 55 bd
       0.0011880407 0.05710443 -0.079536185 -0.052243005
000090 5a 4c c6 bd 4c 5f 48 bc d5 1f 80 be 5a 9d a9 3d
       -0.09682532 -0.012229752 -0.25024286 0.082819656
0000a0 7d 30 5b be 55 88 d0 bd 86 9e 21 be 43 1e c7 bd
       -0.21405216 -0.10182253 -0.15783128 -0.09722569
0000b0 28 7c 7f 3e ce 8c 5e bd dc 05 01 be 90 e8 00 bd
       0.24949706 -0.0543335 -0.12599891 -0.03147179
0000c0 3c a4 32 be 50 6e 05 be 3d 26 08 be a8 9d b6 bd
       -0.17445463 -0.13030362 -0.13295837 -0.08916789
0000d0 54 fd d9 3d 59 54 82 3d c4 3c ef bd 76 53 94 3d
       0.10644022 0.06363744 -0.11681512 0.072424814
0000e0 af 9b ac 3c 1c 89 93 3d 25 ee 20 bd b5 2c 54 be
       0.02107033 0.07203886 -0.039289612 -0.2072018
0000f0 19 44 15 be cf ea b9 3c 33 8a 15 3d 0f bf 5f 3e
       -0.14576758 0.022694973 0.03650875 0.21850227
