data_analysis/src/models/trained_models/U_shape.pth (torch, 113946 bytes, 20 tensors)

0.weight f4 [64, 35]
000000 94 05 44 3f ee ea b2 be a3 ab c3 bd 13 9a f2 3e
       0.7657101 -0.34944862 -0.095542215 0.47383174
000010 1c b9 e7 bd f8 f7 05 3e 55 f6 ca bd 1a 28 1a 3f
       -0.11314604 0.13082874 -0.09910265 0.6021744
000020 71 26 48 3e f9 6a e4 3d ca 90 65 3e d1 75 da be
       0.19545914 0.11153216 0.22418514 -0.42668012
000030 10 0b e3 bd 15 82 5c be 25 b2 ab 3e 20 33 a5 bd
       -0.110860944 -0.21533997 0.3353435 -0.08066392
000040 fe b9 43 3e 32 45 c1 3e 34 04 87 3f a8 d7 b5 3e
       0.19113919 0.37748104 1.0548158 0.35516095
000050 cc d5 70 3e d3 df 24 3f d5 cb 10 3f c1 79 61 3f
       0.23519057 0.6440403 0.56561023 0.88076407
000060 4a bf ec 3d 22 65 d9 3e e5 41 b5 bb 4c 5e 1b be
       0.11559923 0.4245997 -0.005531537 -0.1517269
000070 87 97 f1 bc db ff 0f 3f ca e3 95 3e b8 55 a4 3c
       -0.0294912 0.5624978 0.29275352 0.020060405
000080 ea d8 87 3c 0d be 59 3f 78 a2 04 bf 31 26 82 3f
       0.016582925 0.8505562 -0.5181041 1.0167905
000090 1f ac b1 be 47 1a 0c be 19 67 4e 3f 41 57 1e be
       -0.3470163 -0.13681899 0.80626065 -0.15462972
0000a0 65 f2 8a 3e 10 d7 9d 3d c1 1c ca 3e c3 bf 82 3e
       0.27138057 0.077070355 0.39475062 0.25536928
0000b0 5d 9d 82 3e b5 b3 2e 3e 6e 9e e7 be ea 9d 82 bd
       0.25510684 0.1706074 -0.4523806 -0.06377776
0000c0 df e0 b8 bd 70 03 be 3e 47 a7 80 3d 14 fe dd 3e
       -0.09027266 0.37111998 0.062819056 0.4335791
0000d0 30 69 8d 3e f4 1f 76 3f 3c 97 f6 3e e9 ae 11 3e
       0.27619314 0.96142507 0.48162258 0.14226879
0000e0 ec 0c f9 3e bd 74 09 3f 8c 00 08 3f a5 5b c3 bd
       0.4864267 0.53693753 0.53125834 -0.09538964
0000f0 e3 5f 1f 3f c7 e1 54 3d 8e 14 42 3e 65 91 a0 bc
       0.62255687 0.05197313 0.18953153 -0.01960058
000100 ee bf b2 3e 76 dd e1 3e 86 96 3c bd 45 e0 39 3d
       0.34912056 0.44114274 -0.046041988 0.045379896
000110 c7 99 4d 3f 51 a4 ea be ef e4 6a bf 41 fa c9 3e
       0.8031277 -0.45828488 -0.91755575 0.3944874
000120 22 9d 11 3e 9b 71 2d bf 33 e6 55 3e cf bc 0b bc
       0.14220098 -0.67751473 0.20888595 -0.008528902
000130 d5 2c 18 be f3 90 be be 18 a2 ab be f7 e4 66 be
       -0.14860852 -0.37219962 -0.33522105 -0.2254828
000140 da e7 63 3c 2e fe e5 3e 39 65 8c 3d 5c b7 7d 3d
       0.013910258 0.44920486 0.06855244 0.061942443
000150 a8 fb 18 be d6 ef b3 bd fa 9f 59 be 2c 88 8c be
       -0.14939749 -0.087859794 -0.21252432 -0.2744764
000160 64 a2 70 bf 2e 70 ae be c2 65 0e bf 81 c5 c5 be
       -0.9399779 -0.3406996 -0.5562402 -0.38627246
000170 79 42 dc be 95 72 35 bf 0c 6b 8a bd 56 d0 05 bf
       -0.43019465 -0.70877963 -0.06758699 -0.5227102
000180 ea 19 0d 3e 99 97 39 3e 81 f9 6b bc 7f 06 b9 be
       0.13779417 0.18124236 -0.014402748 -0.3613777
000190 db d9 5f bd dd e7 04 be b0 32 05 be 10 73 2d bf
       -0.054651123 -0.12979074 -0.13007617 -0.67753696
0001a0 98 3a 19 3f 39 b7 77 3f c2 36 13 bf b1 1b 9e bc
       0.5985503 0.9676395 -0.5750543 -0.019300314
0001b0 70 d0 16 3f e5 b2 ab bc 2f 3e eb 3d 9c 01 cd 3c
       0.589118 -0.020959327 0.1148647 0.025025181
0001c0 e1 73 e4 3e dc e5 be 3e 54 b3 d7 bc 0e 33 f9 bc
       0.4461966 0.37284744 -0.026330628 -0.030419853
0001d0 de a9 0d bf 4a be e6 ba 9d ec 30 bd 7b 81 86 3e
       -0.5533732 -0.0017604318 -0.043194402 0.2627066
0001e0 99 e1 2f bd b4 a9 c2 3e 5e 1c ad 3d aa b3 6a 3f
       -0.042939756 0.38020098 0.08452676 0.91680396
0001f0 cc 95 d8 3e 8f a4 b5 3d b0 81 04 3f fc 0b 0a 3f
       0.42301786 0.08869278 0.5176039 0.53924537
000200 e4 d3 35 3f 4c 42 23 3c c6 29 02 3f 2b 23 ad 3d
       0.71026444 0.009964537 0.5084499 0.084539734
000210 7b c6 4a 3d 39 fc 24 be 8e a6 c2 3e 6d d4 9c 3e
       0.049505692 -0.1611184 0.38017696 0.30630818
000220 48 d1 a8 bc d0 e8 ac bc 8b 5a 5d 3f 4c 67 3d bf
       -0.020607606 -0.021107107 0.8646628 -0.73985744
000230 c0 1e 23 bf 74 fe 0e 3e a1 54 b7 3d 3c 8c 62 be
       -0.63718796 0.13964254 0.089516886 -0.22123808
000240 42 bb 6c 3e 33 38 8b 3d f4 22 88 3e cc d2 a3 bd
       0.23118308 0.067978285 0.26589167 -0.07999191
000250 6e 76 d9 bd 02 3e bf 3d 49 ad f3 3c 4b 53 c0 3e
       -0.10618292 0.09337999 0.029745715 0.37563547
000260 b9 2d 9c 3e f7 ad b8 3d fb c3 3a be 5b 5e 62 3e
       0.30503634 0.09017556 -0.18238823 0.22106306
000270 03 9d 4f be c0 2e ba be 04 50 ab bf 86 91 c1 be
       -0.20274739 -0.36363792 -1.3383794 -0.37806338
000280 5b ff 0f 3e 5a 8c 26 bf 14 ef bd be 43 0f cd be
       0.14062254 -0.6505791 -0.37096465 -0.40050706
000290 11 8b a7 3d 31 4f fe be ba 7c 2d 3d 93 68 7d be
       0.08180822 -0.49669793 0.042355277 -0.24746923
0002a0 8d eb 39 3b 72 82 1f be d6 2d 37 be 22 aa 1e 3e
       0.002836916 -0.15577105 -0.17888579 0.15494588
0002b0 10 3d dd bc 95 49 25 bf 38 e4 99 3e 15 21 1f bf
       -0.027006656 -0.645654 0.3005693 -0.62159854
0002c0 b1 96 a3 3e fc 8b f7 3d 5b 69 9d be af 2e c3 bd
       0.31950906 0.12087247 -0.30744442 -0.095303886
0002d0 e4 c2 66 bc ea f7 27 3e 90 c5 ba be a5 a4 97 bd
       -0.0140845515 0.16403165 -0.36478853 -0.0740445
0002e0 93 80 1a bc 2e 07 36 be 23 ad c8 3e 99 7c 38 3e
       -0.009430069 -0.17776176 0.39194593 0.1801628
0002f0 65 b4 1b be 0b cb c8 bd 52 2c ec 3d 00 b8 f0 bd
       -0.15205534 -0.098043524 0.11531891 -0.11753845
000300 a0 13 10 be 54 0a 49 bf c0 a1 e2 bd 93 67 21 be
       -0.14069986 -0.78531384 -0.110660076 -0.15762167
000310 fa a8 b6 be ca a1 ea be 1d d8 02 bf 4f 1c 11 3c
       -0.35675794 -0.4582656 -0.5111101 0.008856847
000320 a2 94 a5 be 44 33 2e 3e 63 00 48 be 2a 8e 26 3d
       -0.3233996 0.17011744 -0.19531398 0.040662922
000330 29 4f 20 be 53 c4 cf be dd 12 1b be e8 4e b6 bd
       -0.15655197 -0.4057947 -0.15143915 -0.08901769
000340 ef dd 13 bf 3a 73 00 3f f6 c5 de be 34 54 9c 3e
       -0.5776052 0.5017582 -0.43510407 0.30532992
000350 74 3d 09 3e 2a 96 d0 be 16 7e 79 bd 29 fe c5 bd
       0.13402349 -0.40739566 -0.06091126 -0.09667618
000360 7a f1 3b be 93 61 2f bf 51 92 4a be 42 12 c7 be
       -0.18353835 -0.6850826 -0.19782378 -0.38881117
000370 1d b7 82 be 7e 6d bd 3e 3a 64 df bd ae 35 de bd
       -0.2553033 0.36997598 -0.109077886 -0.10850082
000380 52 78 1d be a5 67 87 bc f5 04 fa be 77 94 4c be
       -0.1537793 -0.016528914 -0.48831907 -0.1997851
000390 20 1e 06 bf d9 01 0b bf 4a 24 18 bf 3c 33 88 be
       -0.5238972 -0.54299694 -0.5943037 -0.2660159
0003a0 7a 4a 08 bf a5 de 2a bf 01 00 b8 be 03 bc 1d bf
       -0.5323864 -0.6674598 -0.35937503 -0.6161501
0003b0 6c 10 87 bd 3b 72 9f 3e 80 41 ef 3d 3f 5b 3a bf
       -0.06594929 0.31141838 0.11682415 -0.7279548
0003c0 00 5a df be a4 fc 07 3d 9c 39 11 3e 2a 17 72 bf
       -0.43623352 0.03319992 0.14182132 -0.94566596
0003d0 bf 9d 33 3f 0a af c7 be a0 09 42 3e a1 9d 2c 3e
       0.70162576 -0.39000732 0.18948984 0.16857006
0003e0 b8 cc 61 be e9 cf d2 3d d2 09 b6 3c d9 a8 34 3e
       -0.2205075 0.10293562 0.02222148 0.17642535
0003f0 54 54 85 3d 04 e2 0a be 49 4c 5f 3e 71 26 a4 bd
       0.06510225 -0.1356278 0.21806444 -0.080151446

0.bias f4 [64]
000000 da fd 8a 3d 40 ba 9d bc 7f 5d 74 3d 45 b8 b1 3d
       0.067866996 -0.01925385 0.059659477 0.08677725
000010 4e cf 21 bd 21 ce bc bd ca 80 28 be f9 de 45 3e
       -0.03950434 -0.092190035 -0.16455379 0.19323339
000020 d2 c2 76 3d 42 db e4 bd f0 e1 91 3d ce 04 11 3e
       0.06024439 -0.111746326 0.07123172 0.14161989
000030 cb 59 76 bd 18 e8 e7 bd e3 88 c3 bd 95 25 33 3c
       -0.060144227 -0.11323565 -0.095475934 0.010934253
000040 2c 76 dd 3d 53 83 b1 bd cb 57 23 3e c0 44 5f bc
       0.10813555 -0.08667626 0.15951459 -0.013627231
000050 97 cb 17 bd 6a fc 06 be d6 54 89 3c ff 95 0a be
       -0.037059393 -0.13182226 0.016764086 -0.13533781
000060 7e f8 e5 bc 09 65 65 3e eb a0 52 be f9 fe c1 3d
       -0.028072592 0.22401823 -0.20569198 0.0947246
000070 28 04 cf 3c 84 13 31 be 15 fd 28 3e bb 46 da 3d
       0.025270537 -0.17292601 0.16502793 0.10658022
000080 e3 8e 78 3d db d9 17 3e e6 e4 af 3d 05 d3 18 3e
       0.060683142 0.14829199 0.08588581 0.14924248
000090 30 98 1e 3e 75 e9 64 be 0c c2 9d bd f8 f6 1c 3d
       0.15487742 -0.22354682 -0.07703027 0.038321465
0000a0 06 a6 8c bd ee 53 3d be 6c 64 eb 3d d0 79 d5 bd
       -0.06867604 -0.18489048 0.11493763 -0.104236245
0000b0 95 c3 98 3d 9d ef 0c be 53 a8 da bd ed 24 7e 3d
       0.07459179 -0.1376328 -0.106766365 0.062046934
0000c0 3a c6 79 bd 81 6e 8a bd 87 b3 3b bd d6 87 0c bd
       -0.06098006 -0.06759358 -0.045825507 -0.03430923
0000d0 58 e1 df bd 28 00 d4 bd 00 50 4a 3e fa 26 0b be
       -0.10931653 -0.10351592 0.1975708 -0.13589087
0000e0 81 36 95 3d dc e4 e3 bc 30 10 23 3e e5 66 65 be
       0.072857864 -0.02781909 0.15924144 -0.22402532
0000f0 43 58 82 bd 0d c6 36 be 58 78 13 bd 52 2e 60 3e
       -0.06364491 -0.17848988 -0.03600344 0.2189267

1.weight f4 [32, 64]
000000 b6 c4 bf 3d b2 9d 48 3d 11 46 91 3c 9e 73 97 3d
       0.093636915 0.048978515 0.017733606 0.07395099
000010 6f 20 a8 3d 18 d0 de bd 14 32 63 bd 26 1f 01 3e
       0.08209311 -0.108795345 -0.05546768 0.12609538
000020 86 85 10 bd 23 33 03 3e 9b 45 a1 3d 43 40 8e bd
       -0.035283588 0.12812476 0.07874604 -0.06945851
000030 57 cb c2 bd f4 ca 49 bd a1 58 80 3c df f2 d7 3d
       -0.0951144 -0.049265817 0.015667262 0.10544371
000040 2b 29 dc bd 02 f7 54 bd 27 f2 80 bd 45 e1 c0 bd
       -0.1075004 -0.051993378 -0.06296187 -0.09417967
000050 7a fc c0 3c 8b 35 de bd ae a0 a8 bb 4e 0d d6 3d
       0.02355789 -0.10850056 -0.0051461076 0.104517564
000060 1f ef 95 bc 5a a0 fa 3c af a0 cd bd 91 19 13 be
       -0.018302498 0.03059404 -0.100404136 -0.14365222
000070 c7 7a a6 bd a6 ed e3 3b ce 3d 3d bd 8b e8 bf 3d
       -0.08128887 0.00695582 -0.04620152 0.09370526
000080 65 96 f9 3d aa df de 3d dd 36 29 3d 02 60 5b bd
       0.121868886 0.10882504 0.041312087 -0.053558357
000090 90 31 ca bd 67 8c d1 bd 33 89 34 bd c3 e6 2f bc
       -0.098727345 -0.10231858 -0.044076156 -0.01073617
0000a0 62 53 fe bc 09 7d 86 bd f3 43 dd 3c 1b 78 ca bd
       -0.03104562 -0.06566817 0.02700994 -0.098861896
0000b0 64 8e 67 bd 08 42 6a bd f1 f9 94 bd 65 0b f3 bc
       -0.05653228 -0.05719188 -0.07274235 -0.02966852
0000c0 7b c0 d0 bd be 41 e8 bc 0c a2 f0 3d 3a 24 e6 3c
       -0.10192963 -0.02835166 0.11749658 0.028093446
0000d0 10 63 11 be 21 f1 ba 3c 2d cf d9 bd 10 7d c5 bd
       -0.14197946 0.022820057 -0.10635219 -0.096429944
0000e0 e6 68 81 bc b9 7e d2 3a 4d d2 e0 bd f8 9d 47 3c
       -0.01579709 0.0016059495 -0.10977612 0.012183659
0000f0 a9 55 0d 3e ed 7d 64 bd 2c d0 81 bd 96 60 a5 bd
       0.13802208 -0.055784155 -0.06338534 -0.08075063
000100 68 2f f9 bd aa c0 b6 bd a8 a7 82 ba 70 aa 90 bd
       -0.12167245 -0.089234665 -0.0009968178 -0.070637584
000110 c4 16 a4 3d 89 cb 18 3e e1 03 82 3d 88 87 6c 3d
       0.08012155 0.14921393 0.06348396 0.05774644
000120 66 38 72 bd 81 f0 19 3d 98 d3 cd 3d 0e 41 cc 3d
       -0.059135817 0.037582878 0.10050124 0.09973346
000130 99 d1 da 3c 1a 96 ab bd 2d 39 af 3d 22 4a b4 bb
       0.026711272 -0.08378239 0.08555827 -0.0055020014
000140 94 e3 c5 bc ac 35 22 bd d5 c9 dc 3c c8 05 fc 3d
       -0.02415637 -0.039601967 0.02695171 0.1230579
000150 d6 89 5c 3d 8a f6 ef bd 6b a9 a7 3c be f4 fb bd
       0.053842388 -0.117169455 0.020466527 -0.1230254
000160 56 8d ce bd 1a da 5b 3d 18 5f 56 bd 27 3b e7 3d
       -0.100855514 0.053674795 -0.052336782 0.11290579
000170 9b be af bd 08 44 0b be 84 8c 0b 3d 64 50 87 bd
       -0.08581277 -0.1360017 0.034069553 -0.0660713
000180 9f 49 2d bc ea 6a c2 bd b7 ff bc 3c 8e 31 b7 bc
       -0.010576635 -0.094930485 0.023071153 -0.022362497
000190 99 c2 1a 3d d0 00 c7 3d a9 0f 0a bd 0d 78 49 bd
       0.03778324 0.09716952 -0.03370634 -0.049186755
0001a0 dd 93 88 bd a0 87 b8 bd 60 22 f5 bd 05 87 c2 3c
       -0.06668828 -0.090102434 -0.11969447 0.023746023
0001b0 a4 1e 9e 3d 22 23 18 3e b4 d2 bf bd 18 03 b8 3c
       0.07720688 0.14857152 -0.0936636 0.022462413
0001c0 18 e8 dd bc a5 07 f3 bd b6 9f 10 bc 13 c6 7b bc
       -0.02708821 -0.118666925 -0.008827141 -0.015367049
0001d0 6c 0f 11 be 8b 72 90 bc 22 4f ae 3d d1 5b 72 bd
       -0.14166039 -0.017632743 0.08511187 -0.059169594
0001e0 3a a4 cc bd bd b2 3f bc 1a 10 1c 3e ef 61 05 be
       -0.09992261 -0.011700329 0.15240517 -0.1302564
0001f0 ad 07 04 bc b1 19 41 bd ce 0c 07 3d 8b 45 9c 3d
       -0.008058471 -0.04714364 0.032971196 0.07630452
000200 96 f8 10 3e 6e 55 ad bc f6 6b b0 bd 0d 3f a8 bd
       0.14157328 -0.0211589 -0.08614342 -0.08215151
000210 39 5e a5 3c 0c e9 9a 3d f7 b1 cf bd 3f 3a af 3d
       0.02018653 0.075639814 -0.10141366 0.085560314
000220 ed 1c 3a 3e 8c ae 39 3e d6 c1 af 3d 88 9f 55 3d
       0.18175097 0.1813299 0.08581893 0.052154094
000230 9e 47 6d 3d ff f9 14 bd 05 1a c5 bd 2c 71 0c 3e
       0.057929628 -0.036371227 -0.096241035 0.13715047
000240 48 12 a1 bd e9 57 9c bd fa a2 eb bd e6 af 02 be
       -0.07864815 -0.07633955 -0.11505695 -0.12762412
000250 18 cd f3 3b 1a 46 ab 3c a9 33 89 bd 1a 38 bb 3d
       0.0074402206 0.02090745 -0.066993065 0.0914156
000260 7f aa a9 bc 34 c1 8a b8 60 22 24 be c6 ca c4 bd
       -0.020711182 -6.61634e-05 -0.16028738 -0.096089885
000270 2e ac bd 3c 22 56 5b bc 44 b0 cd bd 04 e1 19 3d
       0.02315339 -0.013387235 -0.100433856 0.037568107
000280 c1 61 92 3c 48 bb 43 3e 0f e9 85 3d 13 37 99 3a
       0.017868878 0.19114411 0.06538593 0.0011689387
000290 dd fb f0 bd 67 38 0f bd 42 57 d5 3d df 8c bc 3d
       -0.11766789 -0.0349659 0.10417034 0.092065565
0002a0 9b 64 c2 bd 93 17 a5 bd 68 72 9f bd de 07 96 3c
       -0.09491845 -0.08061137 -0.07785493 0.018314298
0002b0 4c e2 32 3c ef 1d 0c 3c 61 8f ac bd 47 90 ab 3d
       0.010918211 0.008552059 -0.08425785 0.08377128
0002c0 e0 72 c8 3d aa 60 70 bd 6c cd 96 3c 76 08 ae bd
       0.09787536 -0.058685936 0.0184085 -0.084977075
0002d0 57 17 8f 3c ed 4c 97 bd 59 72 18 3e e9 b7 8b bd
       0.017467184 -0.07387719 0.1488737 -0.068221875
0002e0 f9 f4 80 bd ce ca 01 bc 53 81 92 be 9e 92 1b bd
       -0.06296725 -0.007921888 -0.28614292 -0.037981622
0002f0 1c 76 56 bc 63 f4 16 be 6c 85 73 be 5b 8d 8c bd
       -0.013089683 -0.14741664 -0.23781365 -0.06862899
000300 77 fb 2d bc ba ac da 3c d0 f7 96 3d d4 7a 03 bc
       -0.010619036 0.02669369 0.07371485 -0.00802489
000310 b3 fe ae 3d 90 00 55 bd 90 b1 10 3b f3 f7 01 be
       0.08544674 -0.05200249 0.0022078492 -0.12692241
000320 0e ba 1d 3e af c2 4f 3d eb 06 00 3c 55 20 62 bd
       0.15403005 0.050722774 0.007814149 -0.055206615
000330 7a e6 2b 3e 08 09 b5 3d d2 f6 1a 3c 94 55 a6 bd
       0.16787139 0.08839613 0.009458261 -0.081217915
000340 70 1d 57 bc bb 70 f0 bc 0d a4 c9 3c 2c 1d 9a bc
       -0.013129577 -0.02935063 0.024614358 -0.018812738
000350 23 94 25 3d 8b 3e 08 3e 61 bc 0d 3e 71 a2 4d bb
       0.040424477 0.13305108 0.13841392 -0.003137734
000360 9d 37 41 bd 14 cc 35 3d 68 6d db 3d d1 3a 95 bc
       -0.047172178 0.044384077 0.10714227 -0.018216522
000370 a8 b5 07 bd 13 d3 a7 bd 77 17 eb bd e1 e1 f2 3c
       -0.033132225 -0.08194556 -0.11479085 0.029648723
000380 a5 87 28 3d 7b 2c 40 bd 2b 0c 79 3d d3 cb 28 3d
       0.041144986 -0.04691742 0.06080262 0.041210007
000390 b7 fa 32 bd df 23 3a 3d c4 eb ae bd 44 b7 6a bd
       -0.04369613 0.045444366 -0.085410625 -0.057303682
0003a0 39 3e 62 3c 91 8d b4 bd 9b af 72 bd b3 b2 d6 3c
       0.01380878 -0.08816064 -0.0592495 0.026208257
0003b0 80 52 40 3d 7d 19 df bd 0a 94 cb bc 52 b4 8f bd
       0.046953678 -0.108935334 -0.024850864 -0.07016815
0003c0 89 42 5a bd bc f3 e9 bd 21 46 96 bc bf d1 33 3d
       -0.05328611 -0.11423442 -0.018343987 0.0439012
0003d0 26 cd 0d 3e 4b 5b 2e 3d 10 92 ff 3d 04 5b 89 3c
       0.13847789 0.042567533 0.12479031 0.016767032
0003e0 e4 1d 42 bc d3 5f 6b 3d 18 37 03 3e 41 3c 3c 3d
       -0.011847947 0.057464432 0.12813985 0.0459559
0003f0 14 1b bd bd 99 7b 41 bd 8b 0d 2a be b2 d4 23 be
       -0.0923368 -0.047237013 -0.16606729 -0.15999106

1.bias f4 [32]
000000 91 7b 36 bc 1e 20 46 3d 2c 30 1b 3d b7 cc 16 3d
       -0.011137859 0.048370473 0.037887737 0.036816325
000010 c6 50 df bd 04 b6 1b 3c 56 8c f6 bd dc 62 38 bd
       -0.10904078 0.009503845 -0.12038486 -0.045016155
000020 c5 60 cf bc 72 2f a5 bd f9 f4 df 3c 2a 7f 0a 3d
       -0.025314698 -0.0806569 0.027338492 0.03381268
000030 52 3a 08 3d f2 b9 59 3d 0a 44 35 bc 66 64 18 bd
       0.033258744 0.053155847 -0.011063585 -0.037205122
000040 82 1d 2c 3d 4f e5 a3 b9 57 d8 e5 3d 1e 39 8e 3d
       0.04202033 -0.0003126063 0.11222904 0.06944488
000050 b0 fc ba 3d 94 bb 2f 3e 77 f7 00 be 61 92 c8 3d
       0.091302276 0.17161399 -0.125944 0.097935446
000060 22 fc 82 bc 0e 8b 05 be 9f c1 83 bc 67 a6 d5 3c
       -0.015989367 -0.13041326 -0.016083537 0.026080323
000070 78 9f 2d bd bc 6c 07 3e 92 d6 db 3c f7 4f aa 3d
       -0.04238841 0.13225073 0.026835714 0.08316033

3.weight f4 [16, 32]
000000 1b e4 19 3e 92 31 71 3e 99 e3 e6 3d 6b e9 0d be
       0.15028422 0.23554066 0.112738796 -0.13858573
000010 67 e6 9e 3d 57 7a d4 bd 05 c0 ba bc 3b fd bd b8
       0.077587895 -0.10374897 -0.02279664 -9.05939e-05
000020 7b 32 1b be 67 14 2a bd fc ea 2a be 23 8b 36 be
       -0.15155976 -0.041523363 -0.16691202 -0.17826514
000030 7f e6 35 3e 17 f0 da bd bf 1b b0 3d 92 f0 c4 3c
       0.17763709 -0.10690325 0.08599042 0.024040494
000040 cb cf a1 3d 18 b5 09 3e 1d 6e 95 3d e4 68 8b bd
       0.079009615 0.13447988 0.07296393 -0.06807116
000050 8e 18 18 3e be 26 1e 3e 46 82 08 3d 12 9e 2f 3e
       0.14853117 0.15444466 0.033327363 0.17150143
000060 81 19 01 be 7a fc 7d bc 0d 06 01 3c 74 b0 51 3e
       -0.12607385 -0.01550209 0.007874978 0.20477468
000070 93 a1 09 bd 65 c7 22 3e 93 f0 52 3d a9 6c 74 3d
       -0.033601355 0.15896375 0.05149896 0.05967394
000080 04 b9 72 3e f9 fd 51 3e 7c a8 b6 3e 60 e7 f0 3d
       0.2370339 0.20507039 0.35675418 0.11762881
000090 16 59 de 3d c3 e4 35 be 55 72 41 bd 23 fb 2e 3e
       0.108568355 -0.17763047 -0.047228176 0.17087989
0000a0 ad 7e 18 3e 5b 60 47 be 50 b8 b5 3d e4 3c 8e bd
       0.14892073 -0.1947035 0.088730454 -0.06945208
0000b0 50 48 19 3e c1 55 ac be 0b 34 5a be 1b f7 e9 3c
       0.14968991 -0.33659175 -0.21308915 0.028560212
0000c0 b3 d9 bb bd 2f 21 91 bd 08 e8 f0 bc a2 40 a4 3d
       -0.09172382 -0.070864074 -0.029407516 0.0802014
0000d0 1b 0b 3b 3c e9 dd e2 3d 08 4d 0c be 59 b5 13 3e
       0.011416222 0.11077482 -0.1370126 0.14424647
0000e0 32 d6 ac bd 73 2c 54 3d 4b 3b 11 be 6f 56 cf bd
       -0.08439292 0.051800203 -0.14182775 -0.10123908
0000f0 3f be c1 3c ab 75 24 3e c3 ad 78 3e c8 50 ca bd
       0.023650287 0.16060512 0.24285035 -0.09878689
000100 07 85 ec bd 52 20 81 3a d1 43 83 bc 08 a5 df bd
       -0.115488105 0.0009851551 -0.016023548 -0.10920149
000110 92 cc 0a 3e 24 fc b1 bb 9d 9d a9 3d 15 96 15 be
       0.135546 -0.005431669 0.082820155 -0.14608033
000120 9b a2 0a 3e 64 41 0e be de 65 0e be 8f e1 20 be
       0.13538592 -0.13892132 -0.13906047 -0.15711044
000130 26 25 e3 bd c2 29 7c 3d af e7 a0 bd 0a a5 cc 3d
       -0.1109107 0.06156326 -0.0785669 0.09992416
000140 90 b6 46 be 71 19 49 be bf 41 1a be 4e e6 a8 3d
       -0.1940558 -0.19638611 -0.15064143 0.08247052
000150 1f 0c 1f 3e 01 d2 17 bd cd 8e 3a 3d 90 a2 12 3e
       0.15531968 -0.03706551 0.04554634 0.14319825
000160 12 df 9b 3d d9 85 0d be 7b 16 15 3e f6 e6 1c 3d
       0.07610907 -0.1382059 0.14559357 0.0383062
000170 0d dd b4 bc ce 4b 9c 3d 75 71 69 3d 96 8e 9f 3d
       -0.022078061 0.07631646 0.056992967 0.07790868
000180 3b 09 bc 3d 56 26 34 be bd f5 b5 3d 48 1c 2c be
       0.09181448 -0.17592749 0.088847615 -0.16807663
000190 f8 e4 e6 bc c1 fe ec bd 7f 5a 0c 3e db 5a 3e ba
       -0.028185353 -0.11572028 0.13706397 -0.00072614633
0001a0 3a f4 03 3e 55 04 ae bd 8a 62 04 3d fd 47 5a bd
       0.12886134 -0.0849692 0.032320537 -0.05329131
0001b0 5a 39 e9 bc d9 24 91 3d 1d ed 1e be 36 3c 3f bc
       -0.02846973 0.07087106 -0.15520139 -0.01167207
0001c0 a6 21 4d 3c 2d 92 ae 3d ab d3 e0 bc c8 61 c6 bd
       0.012520229 0.085239746 -0.027444681 -0.09686619
0001d0 ff cf 42 3d 35 5f 7a bd d4 68 e1 3b 46 eb 96 bd
       0.04756164 -0.061125953 0.0068789516 -0.073690936
0001e0 1a 55 bd 3d 3c fc d2 3d 45 86 c9 3c 01 10 05 be
       0.092447475 0.10302016 0.024600158 -0.12994386
0001f0 23 e1 9a bd 2f da 0b 3e 79 8f 85 bc 06 b1 26 be
       -0.07562473 0.13657449 -0.016303765 -0.16278467
000200 fd ba e0 3c f9 06 b3 bd 6e 93 0d be ec 4a 0b be
       0.027432913 -0.08741564 -0.13825771 -0.13602799
000210 63 f9 fc bd 5c 56 ba bd ad 5b 3a be 2c 9c 73 3d
       -0.12352254 -0.09098503 -0.18199034 0.05947511
000220 78 d1 12 3e 27 07 bc bd 4c 5e f1 ba 78 9b 1a 3e
       0.14337718 -0.09181052 -0.0018414943 0.15098369
000230 4f 51 2f 3e be 7f 82 3d af 1c f9 bd f6 78 b9 3d
       0.1712086 0.06372021 -0.12163674 0.090562746
000240 f9 9c 94 3d f0 8b 18 be 56 30 e3 3d db 07 1e be
       0.07256503 -0.14897132 0.11093204 -0.15432684
000250 78 c9 ff bc 49 a2 1d be fd 80 46 3c 87 b4 93 bd
       -0.031223997 -0.15393938 0.012115714 -0.07212167
000260 f2 ef a7 ba fb e3 af 3d 32 2a c0 3c cc 7c c9 3d
       -0.0012812598 0.08588406 0.02345762 0.09838256
000270 99 97 df 3b 2c b7 f2 bd 1d f6 bb 3c 74 da 85 bd
       0.006823492 -0.118513435 0.022944504 -0.06535807
000280 31 b1 4e bd 09 a0 8c 3b ce 06 c5 3d 53 45 0e 3e
       -0.05046195 0.0042915386 0.096204385 0.13893633
000290 9a 9c 4c ba ae 6b 23 3e f9 27 1e 3d 47 0b f9 3d
       -0.0007805318 0.15959045 0.03861234 0.12160354
0002a0 a5 d3 07 3d 1a 95 4c be c0 b1 a4 bc 4d 38 ee bd
       0.033160824 -0.19978753 -0.020104289 -0.11631832
0002b0 e0 8c 19 3d fa fd 06 be d9 9f a6 bc 55 09 52 bd
       0.037487864 -0.13182822 -0.020339893 -0.05127843
0002c0 ac 53 14 be 7c 06 dc 3c f5 a7 fc 3d a5 4a b8 bc
       -0.14485043 0.02685856 0.12336723 -0.02249653
0002d0 10 81 13 bd 3e 66 1a 3e 9d 76 02 be 0a 7c 31 be
       -0.036011755 0.15078065 -0.1274056 -0.17332473
0002e0 56 c0 a2 3d 9c da 13 3e 6c ba a5 bd 41 54 d2 bc
       0.079468414 0.14438862 -0.08092198 -0.025674941
0002f0 52 96 ee 3d e6 12 ad bc 5c 2b 89 3c 78 03 e0 3c
       0.11649765 -0.021127176 0.016744308 0.027345404
000300 94 d0 44 bd cb e2 2f be a6 3e 23 bc 41 70 2a be
       -0.048050478 -0.17176358 -0.009963667 -0.16644384
000310 d0 82 28 bd e0 8c 09 bd d8 ac 33 bd 00 38 60 bc
       -0.041140378 -0.033581614 -0.04386601 -0.013685226
000320 8c 37 b2 bd 75 d2 10 be 45 d4 e5 bc d4 54 17 be
       -0.08702001 -0.14142783 -0.02805532 -0.14778453
000330 28 c0 9c 3c 44 07 21 be f8 d5 02 3e 1c 24 cd bd
       0.019134596 -0.15725428 0.12776935 -0.10016653
000340 8e a8 d9 bd b3 65 c3 bd 11 2d 58 3d e7 19 b7 bd
       -0.106278524 -0.09540882 0.052777354 -0.08940487
000350 a4 db 7a 3d 18 db 73 bd a1 71 24 3e 18 59 16 3e
       0.061244622 -0.059535116 0.16058971 0.14682424
000360 cb 0d ef bd 60 6c ad bd 90 3a ad 3d 2a 66 81 3d
       -0.11672553 -0.084679365 0.084584355 0.063183144
000370 fe ce 7a bb a3 7f ba 3c 0e 5a a7 bd 98 9a e9 bc
       -0.003827035 0.02276594 -0.081714734 -0.028516099
000380 2a 84 98 3d 90 bd 14 be a0 01 08 3c 7b 9a a1 3c
       0.07447083 -0.14525437 0.008301169 0.019726982
000390 bf 14 17 3e 90 27 f1 bc c9 73 b2 3c 7c ab 08 be
       0.14754008 -0.02943781 0.021783726 -0.13346666
0003a0 a4 0a b3 bd 00 4d 31 be 9b be 08 be a4 76 07 be
       -0.08742264 -0.1731453 -0.1335396 -0.13228852
0003b0 85 7a fc bd 6a 50 0d 3e 7a c0 9e bd c8 6a bd bc
       -0.12328056 0.13800207 -0.07751556 -0.023122206
0003c0 67 e8 a9 bd 4c e0 fc bd a3 ef 1d be 1e 23 ff 3c
       -0.0829628 -0.12347469 -0.15423445 0.031144675
0003d0 a0 8c f8 bd 1b 53 e5 bd 36 2a b5 3d 18 0e 04 be
       -0.12136197 -0.11197492 0.08845942 -0.12896001
0003e0 20 45 08 3c ae 71 c8 3d 1b 61 3b 3c 30 03 c6 3c
       0.008317262 0.09787308 0.011436726 0.024171442
0003f0 dc 83 0d bd 00 e3 68 bc 92 62 dd bd 03 01 f9 bd
       -0.03454958 -0.014214277 -0.108098164 -0.12158396

3.bias f4 [16]
000000 b4 d2 fd 3d 02 8f 55 bd af 7d 0a be 9e 54 8f bb
       0.12393704 -0.052138336 -0.13524507 -0.004374101
000010 33 65 6e 3d 75 29 1c be 03 9f c3 bd fe 72 09 be
       0.05820198 -0.1525019 -0.095518135 -0.13422772
000020 f2 dc 33 3b 44 3d 19 3e 33 e2 99 bd 77 e8 73 3e
       0.0027444926 0.14964777 -0.07513847 0.23819147
000030 d2 7e f6 3d 42 58 5d bd d7 d6 1f 3c d8 77 b0 bd
       0.12035908 -0.054039247 0.009755812 -0.086166084

5.weight f4 [8, 16]
000000 01 8d ed bd 2a 12 9a bd 04 de 5d 3e bd dc 90 3c
       -0.1159916 -0.07522996 0.21666723 0.017683381
000010 7b a1 1d bd 5a 47 4d 3e 2b f0 09 be a0 6b 1a be
       -0.038484078 0.2004675 -0.13470523 -0.15080118
000020 68 19 d0 bd db c4 88 3e aa 9b 69 be 9d ac a2 3d
       -0.10161096 0.2671269 -0.22813287 0.079430796
000030 78 39 08 be 11 15 d7 bd dd 0c 74 be 98 5e 5b 3e
       -0.13303173 -0.10502065 -0.23833032 0.21422803
000040 30 39 5b 3e 8e 20 3a 3e 65 d5 24 bd e8 0e 5a be
       0.21408534 0.18176481 -0.04024257 -0.21294749
000050 64 92 8c 3d e6 c8 35 be 7f 8a ab bd 3e 12 0a be
       0.06863859 -0.17752418 -0.083760254 -0.13483521
000060 e0 4c 8e be 83 f0 58 3e 2f 04 34 3c 3b de 45 3e
       -0.27793026 0.21185498 0.010987326 0.19323055
000070 52 b1 47 3d 16 8a f0 ba c7 c9 38 3e 0a 91 29 be
       0.04875309 -0.00183517 0.18045722 -0.16559234
000080 bd e5 19 3d d5 b6 f2 bd 4b e1 94 3d 63 83 33 be
       0.03757261 -0.11851279 0.07269534 -0.17530589
000090 9f 5f 36 be 88 b3 78 bc 50 9e 1b ba 7b 73 b2 bd
       -0.17809914 -0.015179522 -0.0005936371 -0.087134324
0000a0 fa eb 38 3d 24 7c a1 3e e0 fc 38 bd ea e5 25 be
       0.04514692 0.31540024 -0.045163035 -0.16200987
0000b0 bb 96 73 be 14 d6 05 3e 03 fd 8b bd a0 5b 4f 3c
       -0.23787968 0.13069946 -0.068353675 0.012656122
0000c0 79 32 eb 3c 35 e8 42 3e 59 88 f4 3d b1 a4 b6 bd
       0.02871059 0.19033892 0.11940069 -0.08918131
0000d0 57 ec 82 be 7e ac 65 bd c1 c0 09 3e e8 f1 41 3e
       -0.25570938 -0.056072704 0.13452436 0.18939936
0000e0 eb 12 5b 3e 02 f1 cb 3d 8e 7a 02 be 27 b8 06 3e
       0.21393935 0.09958078 -0.12742063 0.13156186
0000f0 9f b0 06 be 04 35 32 3e ca a3 38 3e 6c fe 3b 3d
       -0.13153313 0.17403036 0.1803123 0.045896932
000100 0d 7b 31 be 30 7d c2 3d 60 e3 72 be f1 df 74 bd
       -0.17332096 0.09496534 -0.23719549 -0.05978388
000110 04 a7 f9 3d b2 85 06 be 98 72 e1 bd 50 38 80 ba
       0.12190059 -0.13136938 -0.11008185 -0.0009782407
000120 65 10 ff 3d d7 4e 9d 3e 0f c2 4c be 2b a7 6d 3c
       0.12454299 0.30724213 -0.19995902 0.014505188
000130 50 91 f4 bc db ec 18 be 85 a0 50 be d8 a3 99 3d
       -0.029854447 -0.14934103 -0.20373733 0.07501954
000140 b8 bd 72 bd f8 3a 5b bd 71 dd b8 3d 29 d5 06 be
       -0.05926296 -0.053523034 0.090266116 -0.13167252
000150 e0 57 47 be b2 0a 31 3e d6 71 33 be 68 1b c6 bd
       -0.19467115 0.17289236 -0.17523894 -0.09673196
000160 5a 36 7c 3d d7 25 e7 3c 96 6e 8b bc c8 c4 b8 bd
       0.06157527 0.028216286 -0.017020505 -0.09021908
000170 25 e5 88 bd 6f 58 e0 bd 70 03 30 be 40 b9 b0 bc
       -0.06684331 -0.10954367 -0.17188811 -0.02157271
000180 18 1f f1 bd 38 58 b0 3d 1a 0f c7 3d 9a da 28 be
       -0.11773509 0.086105764 0.09719677 -0.1648964
000190 32 be 93 3c 8e ec fd 3c f2 88 3b be 78 77 45 be
       0.018035028 0.030996587 -0.18313959 -0.19283855
0001a0 4f fb 56 3e 9b d9 6f 39 a2 5c 0c be d6 0c 07 3e
       0.20994304 0.0002287388 -0.13707212 0.1318849
0001b0 5a 72 cb 3c 49 b8 c0 bd 2a d6 1d be cf 23 06 be
       0.0248348 -0.094101496 -0.15413728 -0.13099597
0001c0 d9 04 6a be 53 53 bb 3d 7f 92 52 be 35 b6 5f be
       -0.22853412 0.09146752 -0.20563696 -0.2184685
0001d0 d6 64 38 3d 37 9b c4 3c c7 b5 6f bd 80 19 16 bd
       0.04501804 0.023999793 -0.058522966 -0.036645412
0001e0 2d 70 00 bd 28 88 1a 3e b6 f9 7e 3d 76 e9 2d 3d
       -0.03135698 0.15091002 0.06224986 0.042458974
0001f0 1a df 93 bd 1b 36 b7 3c cc cd 30 3e f2 ff 3b 3e
       -0.072202876 0.022364667 0.17266005 0.18359354

5.bias f4 [8]
000000 ba 5a 25 be 97 ca ab bd 70 1e df bd 43 bb 8f 3d
       -0.1614789 -0.0838825 -0.10894477 0.07018139
000010 47 a5 38 bc 97 b3 16 3e 50 9e 3f bc 95 40 c3 bd
       -0.011269874 0.14716946 -0.0116954595 -0.095338024

7.weight f4 [16, 8]
000000 5e 24 d4 3d 22 cd 0f be 50 cf c1 3d fb ff 46 be
       0.10358499 -0.14043096 0.0946337 -0.19433586
000010 ff 9a 7b 3e 03 cf 8b 3e 7c 01 ac be 1f 29 bc be
       0.24570845 0.27306375 -0.33594882 -0.36750123
000020 63 ce 51 3d 28 a5 99 be bb 9f a3 3e fa f7 87 be
       0.051222216 -0.30008817 0.31957802 -0.2655638
000030 11 0f 74 3e 4a 0a 8c be 17 f9 0b be ef df 14 3e
       0.23833872 -0.273516 -0.13669239 0.14538549
000040 f1 e4 35 be 81 2e 1e 3b ec 01 a5 bd 8b 33 fc 3d
       -0.17763115 0.0024136605 -0.08057007 0.123145185
000050 8d 4b ac 3e 1c 02 4b 3e f7 43 2f be b0 9a f6 3d
       0.3365139 0.19825023 -0.1711577 0.12041223
000060 ec c7 0c 3e 50 fa 16 be 06 e0 50 be 1c 1f 76 3e
       0.13748139 -0.14743924 -0.20397958 0.24035305
000070 c2 64 1d be ab 1d 08 3d 64 cf 00 be a2 1d 94 bd
       -0.15370467 0.03323142 -0.12579113 -0.072322145
000080 65 6c 0f 3e e1 f3 ab ba 04 44 ba be 88 22 01 3e
       0.14006193 -0.0013118946 -0.36380017 0.12610829
000090 ee a6 50 be 6a c6 46 3e 45 7f 90 3e ff 6a 91 3c
       -0.20376179 0.19411626 0.282221 0.017751215
0000a0 fe b5 42 3e b1 74 aa be 0f 69 96 3e ae 35 ac be
       0.19014737 -0.33292153 0.29377028 -0.33634704
0000b0 84 9c 93 3e 5e 50 18 3e 3e 4f b1 be f7 f5 f5 3d
       0.2883035 0.14874408 -0.3463077 0.12009805
0000c0 13 fb 91 bd 70 a0 77 be 48 7d 6f 3e fb 1f a6 3e
       -0.07127967 -0.24182296 0.23387635 0.32446274
0000d0 d1 63 f7 3c 46 5e a9 3e cd d3 f1 bc d6 37 07 bd
       0.030198963 0.33079737 -0.02951994 -0.033012234
0000e0 d8 51 14 3e 2b e0 96 3e 31 42 9f bd 29 9b 9e 3e
       0.14484346 0.29467902 -0.07776297 0.30977753
0000f0 94 67 69 bd 23 cc a4 3e b5 bd a9 be fa bc 4b be
       -0.056983545 0.32186994 -0.33152547 -0.19896308
000100 ad 62 94 3e c4 7a 93 3e d0 3f 18 3e c3 14 ce bc
       0.28981534 0.288046 0.14868093 -0.025156384
000110 5c 92 97 3e 54 bd bc be 6c 82 a8 3e e0 14 6b be
       0.2960385 -0.36863196 0.32912004 -0.22957182
000120 73 ec c5 be a4 98 95 bd af 78 9d 3e 07 d5 83 3e
       -0.3865696 -0.073045045 0.30756137 0.25748464
000130 d8 d3 92 3e 83 ee 41 be 63 58 6a bc dc e1 30 bd
       0.2867725 -0.18938641 -0.0143033 -0.043184146
000140 7f 10 19 be e0 7d af 3d 24 17 27 be 10 60 2e 3e
       -0.14947699 0.085689306 -0.16317421 0.17028832
000150 d3 07 f0 3d fe 58 48 bd 68 56 5c 3d 65 8a 8f 3d
       0.11720242 -0.048912995 0.05379334 0.070088185
000160 09 f2 9f be c2 a3 90 3e bd 01 64 be 9c 62 a1 3e
       -0.31239346 0.28249937 -0.22266288 0.31520545
000170 7e 95 32 be 2d 50 ab 3e e4 7b 76 be 6b 0e 23 3d
       -0.17439839 0.33459607 -0.24070698 0.039808672
000180 4f bb fe be d4 41 02 3e 5c 57 e2 3e f4 64 87 ba
       -0.4975228 0.12720424 0.44207275 -0.0010329769
000190 08 2f b6 be 82 b7 34 be 0c 48 8d be 44 75 91 be
       -0.35582757 -0.17648128 -0.2759403 -0.2840978
0001a0 a8 38 d6 3d 0c bc 64 be df 73 64 3e 44 de 14 be
       0.10460025 -0.22337359 0.22309826 -0.14537913
0001b0 e5 f9 14 3e df 2d 9a 3e ed 50 0c 3d 02 fa cb bc
       0.14548452 0.30113122 0.034256864 -0.024899486
0001c0 e5 b3 d3 3d 77 c5 0d 3e 08 2d 4b 3d 5f 82 aa 3e
       0.103370465 0.13844858 0.049603492 0.3330259
0001d0 6d 75 85 3e 65 c6 27 3e f5 98 55 bd 90 fb 99 3c
       0.2606615 0.16384275 -0.052147824 0.018796712
0001e0 fc 5c 99 3e 4f 26 28 ba 36 59 22 be 89 4f 19 be
       0.29953754 -0.00064144 -0.15854344 -0.14971747
0001f0 2e 66 9f 3d 25 52 e0 bd 2a a7 2d 3e c3 9c af 3d
       0.07783161 -0.10953168 0.169583 0.08574822

7.bias f4 [16]
000000 8a 35 5f be 96 e4 46 3e 19 3e f8 be 75 3d 0e be
       -0.21797767 0.19423136 -0.48484877 -0.13890631
000010 73 0c b1 be af 29 27 3e c3 ac fd 3d f8 d0 e7 be
       -0.3457981 0.16324495 0.12386467 -0.45276618
000020 fd e7 10 3e c4 71 5a be 68 82 a5 be a9 88 ce 3e
       0.14150997 -0.2133246 -0.32326055 0.40338638
000030 ec 3a 06 3e 4a be b3 be aa 42 15 3e d2 4e 92 bb
       0.13108414 -0.35106117 0.14576212 -0.0044649625

9.weight f4 [32, 16]
000000 5a b6 6f 3d 7f 60 3b be 98 08 2c 3e 3e 93 59 be
       0.058523513 -0.18298529 0.16800153 -0.21247575
000010 57 ff 47 be b0 a5 05 be 91 7b 45 bc dd 56 1a 3d
       -0.19530998 -0.13051486 -0.012053386 0.037680496
000020 ec 28 3a be bd fd 6b be eb 26 2d bd 58 d4 84 3c
       -0.18179673 -0.23046012 -0.042273443 0.016214535
000030 f8 63 7c be 0c 9f 53 be c7 3e 5f 3e 7c 1a 1e be
       -0.2464751 -0.2066614 0.21801291 -0.1543979
000040 70 d7 32 be d6 3c 17 3d aa f2 23 3e df 47 21 3e
       -0.17464995 0.036923252 0.16010538 0.15750073
000050 f5 65 7a 3d 49 02 c4 3c 9d 32 4d 3e 7d 31 f4 3c
       0.06113239 0.02392687 0.20038839 0.029808754
000060 a3 9c 68 bd 3b 0f 2f 3e 27 e4 39 3d 54 43 6c bd
       -0.056790005 0.17095654 0.0453836 -0.057681397
000070 d6 d4 64 3e d1 db 21 3d 35 3a 90 bd d3 8e 3a be
       0.22346815 0.039516274 -0.07042352 -0.18218546
000080 ae 13 0d 3e e2 53 6c be 12 95 e8 3d b5 60 da bd
       0.13777038 -0.23078874 0.11356558 -0.10662977
000090 23 cc 54 3e bb 5c 21 3e 7b f0 4d be f1 c8 14 be
       0.20780997 0.1575803 -0.20111267 -0.14529778
0000a0 24 f2 29 bc c8 58 0c bc fd da 13 3e 86 ae b4 bc
       -0.010372672 -0.008566089 0.14439006 -0.022055876
0000b0 82 44 a4 3d 83 07 9c bd dc b4 40 3d ed 12 b8 3d
       0.08020879 -0.0761862 0.04704748 0.08987985
0000c0 10 03 7d bd 9a cf 59 be 09 d2 e1 ba 88 02 9a bd
       -0.0617705 -0.212706 -0.0017228733 -0.07520014
0000d0 e7 04 1e ba 8a 23 60 bc aa ca 38 3e 64 c2 6d be
       -0.0006027952 -0.013680348 0.1804606 -0.23218685
0000e0 48 a0 6e 3d 20 56 c8 3d d2 0a e4 bc e1 da 2c be
       0.058258325 0.09782052 -0.02783719 -0.1688037
0000f0 55 89 6b be 00 eb 7f be bd d1 fb bd eb 51 4b be
       -0.23001607 -0.24991989 -0.12295864 -0.19855468
000100 85 2e 19 3e f8 8c 5c 3e 8e e2 0c be b4 0f fb 3c
       0.14959152 0.2153815 -0.13758299 0.030647136
000110 91 f3 24 be 71 52 80 bd 0a 5a db 3e e4 07 14 bd
       -0.16108538 -0.062657245 0.42842132 -0.036140338
000120 40 0a 67 bd 19 72 4f bb 51 a8 2c be 5b 87 1c be
       -0.05640626 -0.00316537 -0.16861083 -0.15286009
000130 0c 49 03 3e f8 1a 21 be 9b 90 1d be e8 eb 3a 3e
       0.12820834 -0.15732944 -0.15387194 0.18254054
000140 af 5c 0a be 33 da fa bd d0 d4 ac 3b 14 e4 25 bb
       -0.13511918 -0.122486494 0.0052743927 -0.0025312947
000150 3c bf a6 be 39 48 26 be 78 1f 1c be 42 7f 84 3c
       -0.32567775 -0.16238488 -0.1524638 0.016173963
000160 5f 2a 4c 3e 12 19 58 3e 35 1d 4e be a0 6b fa 3d
       0.19938038 0.21103314 -0.20128329 0.12227559
000170 3e 44 1f bd 9b ed 0a 3e 7f 11 0b 3e 5b 52 10 be
       -0.03888344 0.13567202 0.13580893 -0.14093916
000180 f0 94 3a 3e 3d 0a 0a bd e8 69 d4 3d 05 58 90 be
       0.18220878 -0.03370117 0.103717625 -0.28192154
000190 e1 27 4b 3d 29 2d fe bd 82 30 d6 bd d8 28 12 bd
       0.04959858 -0.12410957 -0.10458471 -0.035683483
0001a0 b1 76 c9 3d a6 0f a8 bc b2 2b 83 3e 08 a2 fb 3d
       0.09837092 -0.020515274 0.25619274 0.122867644
0001b0 04 02 2a 38 20 86 ac bd 83 34 dd bd bb e5 75 be
       4.0533036e-05 -0.0842402 -0.108010314 -0.24013416
0001c0 da d5 90 bd 1f 0a 39 be 6b 09 56 be 76 d0 39 be
       -0.07072039 -0.18070267 -0.2090203 -0.18145928
0001d0 9a 3e 01 be 5f 46 dd 3d 02 b0 01 3e 2b 58 30 bd
       -0.12621537 0.10804438 0.12664798 -0.043052834
0001e0 0a 6a a3 bd 5c b7 c9 bd f5 5e 57 be 81 11 72 3e
       -0.0797921 -0.09849426 -0.21032317 0.2363949
0001f0 ce a6 54 3e 40 9a 4d 3c 92 d6 25 bc 1e c9 19 3e
       0.20766756 0.012548983 -0.010121958 0.15018126
000200 95 1a 35 3e 79 25 bc bd 9e 15 63 be 0e df 45 be
       0.17685921 -0.09186835 -0.22176215 -0.1932337
000210 39 86 1f 3e 12 84 ff bd 81 5f 5b be c9 e0 4c be
       0.15578546 -0.12476362 -0.2142315 -0.20007624
000220 f9 2c ba 3b 76 3c 4d be 3f 76 80 bd bc 3c 3e be
       0.0056816307 -0.20042595 -0.06272554 -0.18577856
000230 a2 51 03 3e c4 51 71 bd b9 5b 44 be ac 38 29 3e
       0.12824109 -0.05891587 -0.19175614 0.16525525
000240 84 50 0e bd 25 81 03 be ce 6e 03 bd c4 01 2c 3e
       -0.034744754 -0.12842233 -0.032088093 0.16797549
000250 e8 77 47 3d 1d 17 1b be e0 9c be bd 19 ac 93 bd
       0.048698336 -0.15145536 -0.09307265 -0.072105594
000260 bd 57 60 3d 15 76 53 bd 78 bd 0c 3e e0 a3 16 3e
       0.054771174 -0.051626284 0.13744152 0.14710951
000270 57 7c 5f be b9 df d1 bb d1 eb a6 bd 87 7d 24 3c
       -0.21824776 -0.0064048436 -0.08150447 0.010039694
000280 8c f8 30 be f4 bb f6 bc 7d b4 63 3c 03 48 35 3e
       -0.17282313 -0.03011892 0.013898012 0.17703252
000290 3a df ee 3d 76 6e a9 3d d6 91 fc 3d dd 92 ad 3d
       0.11663671 0.08273022 0.123325035 0.084752776
0002a0 cf 25 a7 3c c1 f5 94 bd 5c 6b 4a 3e 25 45 ff 3d
       0.02040377 -0.07273436 0.19767517 0.1246436
0002b0 62 bf 25 be 68 0f 82 bd ab 6e 00 3d a8 08 b3 bd
       -0.16186288 -0.06350595 0.03135554 -0.087418854
0002c0 6b fa 68 bc 3c f2 d5 bd 88 39 25 be da 0f 1f 3d
       -0.014219861 -0.10446593 -0.16135228 0.038833477
0002d0 06 92 10 be 49 8b 48 be df 94 59 3d a2 c5 e0 3d
       -0.14118204 -0.19584383 0.05312049 0.109751955
0002e0 30 08 09 3e b2 b0 f8 3d 93 ea 7a 3e 05 1a 2a 3e
       0.1338203 0.12143077 0.24503545 0.16611488
0002f0 18 b1 82 be d9 dd e2 3d 79 6a 8b 3d d6 6d 58 be
       -0.25525737 0.1107747 0.068074174 -0.21135649
000300 c3 c4 24 bd a6 91 5c 3e c6 57 0e 3b 07 0b 0b 3d
       -0.04022671 0.21539935 0.0021719798 0.033946063
000310 2a 30 f4 bd ff 9a bd bd 51 b9 87 be d1 6e 28 be
       -0.11923249 -0.09258079 -0.26508573 -0.16448523
000320 93 d5 5b be 52 ad fa 3d 1d 55 06 be 7c d0 95 bd
       -0.21468191 0.122400895 -0.13118406 -0.07315156
000330 ba 59 37 be 96 e9 0b 3e fd f8 eb 3d 46 74 9f 3c
       -0.17905322 0.13663325 0.115221 0.019464623
000340 20 1c e5 bd a3 07 0c 3d 6f 6b 21 be 6e 80 2e 3e
       -0.11187005 0.03418697 -0.15763639 0.1704118
000350 87 61 f4 bc e8 10 18 3e 1f db 51 bd e6 65 fa bd
       -0.02983166 0.14850199 -0.05123436 -0.12226467
000360 43 aa 8d bd 99 30 22 3e 42 06 8d bd 93 33 11 3e
       -0.069172405 0.15838851 -0.06885959 0.1417983
000370 52 14 f4 3d 5f eb cb 3d 3b 6d a6 3c 4e 30 b6 3d
       0.11917938 0.09957003 0.020315757 0.08895932
000380 3c f2 58 be e2 43 18 3e 79 7a 6f 3d e4 80 1c 3e
       -0.21186155 0.14869645 0.05846641 0.15283543
000390 d1 4b 29 3e 7b 87 47 3e c7 3b 0f be b1 76 40 bd
       0.16532828 0.19485275 -0.13987647 -0.046988193
0003a0 87 04 49 bd 0e 00 21 be 06 40 57 be 93 e0 77 3e
       -0.049076583 -0.15722677 -0.21020517 0.24206762
0003b0 49 97 ae 3d ce 4b cc 3d 72 d2 b2 bd cc 5d 8d bd
       0.08524949 0.09975396 -0.087315455 -0.06902656
0003c0 69 7c 2a 3e 3d c9 06 be e5 7a cc 3b 32 a1 d7 3d
       0.16649021 -0.13162704 0.006240236 0.105287924
0003d0 d5 92 4c be 42 8f a6 bd 53 7a 04 bb ac ec 11 3e
       -0.19977887 -0.08132793 -0.0020214512 0.1425044
0003e0 2f 0c c7 3d dc 9f 07 be 8d 7b 4b 3e 75 6d c0 3d
       0.09719121 -0.13244575 0.1987135 0.09395877
0003f0 ac dd f2 bc 45 71 9b 3d fd c5 20 be 24 c5 ad bd
       -0.029646717 0.07589964 -0.15700527 -0.08484867

9.bias f4 [32]
000000 35 ea 81 3e a5 13 05 bf ee 2c 8e be 80 0e 98 3d
       0.25373998 -0.519831 -0.27768654 0.07424641
000010 cf 90 bb 3e 42 57 00 3e 72 9d c8 3e 5c 71 e6 bc
       0.36633918 0.12533286 0.3918262 -0.028130226
000020 3c 5c 8c bd 4c ed c1 3e 0d 42 e2 be b8 52 6e be
       -0.0685353 0.37876356 -0.44191018 -0.23273742
000030 c3 8b 75 3e 58 d6 fe be b8 58 8f 3e 30 22 d9 3e
       0.23979096 -0.49772906 0.27997375 0.42408895
000040 a0 84 5d 3c 40 0d 95 bd 95 7f e0 3d f7 64 b3 3e
       0.01352039 -0.07277918 0.10961834 0.35037968
000050 e7 36 b9 3e 06 88 8d bc 6b 2a cb 3d fa 6c 91 be
       0.361747 -0.017276775 0.099202 -0.28403455
000060 e5 0a 10 bf 8c f6 3e be 67 e1 04 bf 2c 08 c7 be
       -0.56266624 -0.18648738 -0.51906437 -0.38873422
000070 02 a1 b4 3e ff f4 24 bf ca 8c d8 be cc 24 0d 3e
       0.3527909 -0.64436334 -0.42294914 0.13783568

11.weight f4 [64, 32]
000000 5d c6 2e 3e 27 38 4a 3d 31 d1 72 bd 95 15 e7 3d
       0.17067857 0.049369957 -0.05928153 0.11283413
000010 c6 4e 69 3d 23 4a 84 bd 1c 09 c4 3d 36 a2 8e bd
       0.05695989 -0.06459453 0.0957205 -0.06964533
000020 38 d6 c8 bd aa 67 72 bd a0 90 53 3d 41 d4 a1 3d
       -0.09806484 -0.059180893 0.051651597 0.07901812
000030 ed e2 01 bd f1 9f 07 3c 9e 26 30 3e 85 81 89 3d
       -0.031710554 0.008277879 0.17202231 0.06714157
000040 70 cf 5a bc 07 20 bf bd 82 75 45 3d 13 d4 ec 3d
       -0.013355121 -0.093322806 0.048207767 0.115638874
000050 68 56 b0 3c f8 d1 30 be 61 51 49 bb 17 35 27 be
       0.021525577 -0.17267597 -0.0030718672 -0.16328846
000060 99 48 f1 3c fe 32 1a 3d 1b 45 4c bd 63 59 1a be
       0.029453563 0.037646286 -0.04987059 -0.15073161
000070 a0 76 08 be 83 ed 58 bd 27 8c 1e be dc e6 40 be
       -0.13326502 -0.052960884 -0.15483151 -0.18838066
000080 36 30 e2 3b 82 1f 36 3e 21 f4 0d be 1b 02 8f 3a
       0.00690272 0.17785457 -0.13862659 0.0010910662
000090 bf 58 99 3c 77 a3 37 bd a7 af 18 3e bf 6c 95 3d
       0.018719075 -0.044833627 0.14910756 0.07296132
0000a0 7c 54 25 3d 0f dd 53 be 95 81 24 bd 76 30 19 3e
       0.040363774 -0.20689796 -0.04016264 0.14959893
0000b0 71 9a a3 bd 90 be 96 bd 07 53 b7 bc 51 b1 d8 bd
       -0.07988442 -0.07360566 -0.022378458 -0.105806954
0000c0 b4 f7 9d bd ab d8 27 be 64 c8 90 bd 5d da b5 3e
       -0.07713261 -0.16391246 -0.070694715 0.3551816
0000d0 db dc 26 3e 26 62 23 3d 76 da bc 3d 77 fa 72 bd
       0.16295187 0.039888524 0.092213556 -0.059320893
0000e0 84 22 11 3e ef 62 e3 bd f2 e2 20 be e0 4f e0 bd
       0.14173323 -0.111028545 -0.15711573 -0.10952735
0000f0 fe 1f 1d 3e 98 b8 ba bd 8d 13 49 be 48 25 c4 bd
       0.15344235 -0.0911724 -0.19636364 -0.09577423
000100 06 7f 36 bc c4 78 d7 bd de 5a eb bd 40 4b 25 3e
       -0.011138683 -0.10521081 -0.11491941 0.16141987
000110 6e 50 62 3d 3c 08 94 3d 6b 67 0b 3e 69 36 00 3e
       0.055252485 0.07228133 0.1361367 0.12520756
000120 78 eb 98 3d 46 38 4e be ea 18 71 3d b2 b9 24 3e
       0.07466787 -0.20138654 0.05886165 0.16086462
000130 93 f1 ed bd d6 73 71 bc af e7 06 bd 8b da 12 3d
       -0.11618342 -0.01473709 -0.032935794 0.03585295
000140 50 f4 a3 3a 3c e2 27 be 84 8a d0 bd d8 93 4d 3e
       0.0012508724 -0.16394895 -0.1018267 0.20075929
000150 0a 5e b2 bd 09 a3 a4 bd 9e 0a 83 3b 57 49 97 bd
       -0.08709343 -0.08038909 0.0039990684 -0.07387035
000160 c8 58 02 3d 42 18 d3 bc af 22 3f be d4 58 6c be
       0.03182295 -0.025768403 -0.18665574 -0.2308076
000170 87 be fe 3d fa 79 88 3d 40 94 b2 3d df e6 ee 3a
       0.12438684 0.0666389 0.08719683 0.0018226764
000180 c6 5b 1c bd 0b 78 71 be e0 d4 cf bd 83 55 a9 bc
       -0.03817346 -0.23580949 -0.101480246 -0.020670658
000190 87 b3 a4 bd fc 87 eb bd b8 05 0a bd 40 a5 04 be
       -0.080420546 -0.11500546 -0.03369686 -0.12953663
0001a0 80 5a e9 bd 04 4d 01 3e 11 5b 00 3e f6 97 a9 bc
       -0.11394215 0.12627035 0.12534739 -0.020702343
0001b0 7d c8 d3 3d e7 41 ab bd 86 9d c9 3d cd 55 12 3d
       0.103409745 -0.08362179 0.09844498 0.035726357
0001c0 14 1a 09 bd 32 17 eb 3d 22 6a 00 be 7e e6 ed bc
       -0.033472136 0.114790335 -0.12540486 -0.029040571
0001d0 f7 08 e5 3c a0 f7 58 bc fc 8a b0 3c f8 65 8e 3d
       0.027958376 -0.013242632 0.021550648 0.06953043
0001e0 bf f1 d6 bd d2 0a 02 3e 09 7c 08 3e e4 1f 2d bc
       -0.10495328 0.1269944 0.13328566 -0.010566685
0001f0 93 1c eb 3d 38 7f a7 bd 05 a4 64 bd 93 b1 22 be
       0.114800595 -0.08178562 -0.055820484 -0.15888052
000200 33 1a 0c be bd 82 f4 3d f6 71 21 bd f2 15 5a bd
       -0.13681869 0.11938999 -0.039415322 -0.053243585
000210 86 c1 be 3d e2 96 a4 3d 5f 5f 33 bd 3a 31 05 3e
       0.093142554 0.08036591 -0.043792125 0.1300706
000220 ae c8 33 3d cf 11 a9 bd da 53 1a 3d bb dd e7 bd
       0.043892555 -0.0825535 0.037677623 -0.113215886
000230 43 fa 36 bd 5f 92 45 be 86 73 00 bd 8f 0f 99 3d
       -0.044672262 -0.19294117 -0.03136017 0.07473671
000240 df 59 d5 bd fc 67 0c be ae 12 39 be 59 fe 30 bd
       -0.10417532 -0.13711542 -0.18073532 -0.043211315
000250 3c 4c 29 be 89 67 42 be 65 1a 28 3e b3 8a a8 3d
       -0.16532987 -0.18984808 0.16416319 0.0822958
000260 fc 99 10 be ec 08 e2 3b 3a e5 3b 3d 15 b9 13 3e
       -0.1412124 0.006898036 0.045872904 0.14426072
000270 4d 5e b8 bd 3e 7b c6 bd 6d c1 e9 3d c7 24 c5 bc
       -0.090023614 -0.09691475 0.11413846 -0.024065388
000280 2b 04 36 bd d1 e5 24 3a 32 57 06 be 01 1c ac 3d
       -0.04443757 0.0006290349 -0.131192 0.08403779
000290 ca 35 f7 bc 47 0e ce 3d 21 ca fc 3d ba 2e 21 3d
       -0.030177016 0.10061317 0.123432405 0.039351203
0002a0 2d e7 0e be ed 3a 88 bd f1 96 12 3c 79 19 2a 3e
       -0.13955374 -0.06651864 0.00894712 0.1661128
0002b0 bb 33 8d 3c a4 eb d5 bd 60 3d c8 bd f8 2d fe bc
       0.017236581 -0.104453355 -0.09777331 -0.031027779
0002c0 a2 9d 60 bd 16 61 1e 3d bb dc 1f 3e 59 33 41 3d
       -0.05483783 0.038666807 0.15611546 0.04716811
0002d0 d1 2f 0a 3e 15 3b 1f be 93 f3 b8 3c d2 7b f6 3d
       0.13494803 -0.15549882 0.022577083 0.120353356
0002e0 41 e9 84 3d a1 4a e9 3d 88 2e c2 3d 46 36 32 be
       0.06489802 0.113911875 0.094815314 -0.17403516
0002f0 15 5d 4e 3c 88 6a 53 be 91 df 43 be 46 fa 96 bd
       0.012595435 -0.20646107 -0.19128253 -0.073719546
000300 c2 4c 0f 3e 1e 62 ad 3d 36 cb fb 3d 4a f1 24 3e
       0.13994125 0.0846598 0.12294619 0.1610767
000310 88 32 af bd e9 9b b2 3a 5c 14 b0 3d ce cc 3a be
       -0.0855456 0.0013626787 0.08597633 -0.1824219
000320 49 60 ee 3d 23 1c 46 3e 2a 0b 16 bd d8 1e 53 bd
       0.11639459 0.19346671 -0.03663174 -0.051543087
000330 06 9c 64 3c d5 b1 94 bd fa bc e5 3d a8 73 71 3d
       0.0139532145 -0.07260481 0.11217685 0.05894819
000340 9b 58 1b 3e a5 55 00 bd b9 e3 b6 bb 32 97 66 3d
       0.15170519 -0.031331677 -0.005581346 0.056296535
000350 c8 04 bf 3d 06 db fd 3d 37 1e 24 3e 74 08 f2 bc
       0.09327084 0.12395291 0.16027151 -0.029545046
000360 64 fc fa bd 1f ed ad 3d b9 0f 29 3e e0 a2 25 bd
       -0.12255171 0.08492493 0.16509904 -0.040438533
000370 db b3 87 bc 0e 02 35 3e 60 2c 9a bd a0 81 eb 3d
       -0.016565254 0.17676565 -0.07527995 0.114993334
000380 35 df a0 3d ab 2b 8f 3e 11 7d 3b 3d ab 8f 60 bd
       0.07855073 0.27963004 0.04577357 -0.054824512
000390 42 5a 29 be 40 0b 54 3e 17 4c 87 bd 23 fa 0c bd
       -0.16538337 0.20707417 -0.0660631 -0.034418236
0003a0 b2 14 51 bd 35 31 23 3e 3c f5 73 bc 4c ac bb 3b
       -0.051045127 0.1593674 -0.014890011 0.0057273265
0003b0 f0 0d 9e bd 6e 5f be bc f4 77 4a 3c 1d fa a3 bd
       -0.07717502 -0.023238864 0.012357701 -0.0800669
0003c0 2a 85 f1 3d d3 52 d0 bd c7 ae d0 3d 8c e1 db bc
       0.11792977 -0.101720475 0.10189586 -0.026840948
0003d0 a2 42 ca bd 65 6e 75 bd f1 95 01 be 79 60 3e 3e
       -0.098759905 -0.059919734 -0.12654854 0.18591489
0003e0 3e 92 38 3d 88 fe 2f be 53 1a f9 3d d4 d7 1e be
       0.045061342 -0.1718694 0.12163224 -0.1551202
0003f0 ac 47 42 be 59 f9 0e 3d 64 a4 47 be ab e7 ac bc
       -0.18972653 0.034905765 -0.19496304 -0.021106562

11.bias f4 [64]
000000 72 34 0c 3e 99 40 26 bd f8 13 58 bb 45 e5 9b 3e
       0.13691881 -0.04058895 -0.0032970887 0.30448356
000010 0a 2d 68 3e 13 a6 70 be bc fb 18 3f b9 e2 63 be
       0.22673431 -0.23500852 0.59759116 -0.22254457
000020 08 2b 3b 3e 4e 37 fd be 81 ac b6 3e 89 9f af 3e
       0.18278134 -0.49456257 0.35678485 0.34301403
000030 04 58 2e bd 54 1f 39 3e cb 7b a1 3e af 66 54 3e
       -0.042564407 0.18078357 0.3153976 0.20742296
000040 3a 3e fd bd c9 a4 aa 3e 54 9e 0a bd 8e ae 0c be
       -0.123653844 0.33328846 -0.0338424 -0.13738462
000050 6e b3 7e 3c 30 ff 95 3d 5c a7 7a 3e 58 8d e4 3e
       0.015545709 0.07324064 0.24477905 0.44639087
000060 11 06 07 3e 9f ff c1 be 55 b0 d9 3e 29 f9 23 3f
       0.13185908 -0.37890336 0.42517343 0.64052063
000070 ba 9f 87 3e 6f 9b 82 3e 93 c7 a1 3e 63 2b 4d be
       0.2648905 0.2550921 0.31597576 -0.20036082
000080 08 21 ec bd b3 0b 19 3e 1c 2a 23 be 3a 26 90 be
       -0.11529738 0.14945869 -0.15934032 -0.28154165
000090 33 2c f5 be f7 a8 70 3e 2d 52 b5 3e 24 51 2b 3d
       -0.47885284 0.23501955 0.35414258 0.04182543
0000a0 74 dd 3e 3e e5 48 61 3e 7e 23 8f 3e a1 9a 4d 3d
       0.18639165 0.22000463 0.27956766 0.050196294
0000b0 e8 87 14 be cc 9e 8d be bd 9f 41 be 73 73 9b 3e
       -0.14504969 -0.27660215 -0.18908592 0.30361518
0000c0 23 a5 2c 3b 5f 87 9e bc 86 fd 69 3e 9d 6a 58 bd
       0.0026343546 -0.01935166 0.22850618 -0.05283605
0000d0 d5 69 3d 3e d5 20 5b bd de 0d 2e 3d db df 15 be
       0.18497403 -0.053498108 0.042493694 -0.14636175
0000e0 1e ec e1 be 51 95 23 3e 32 58 0a bd 2c b8 04 bf
       -0.44125456 0.15974928 -0.033775516 -0.51843524
0000f0 a1 c6 b8 be 4c f1 ce 3e 23 25 ec be dd 16 ac be
       -0.36089042 0.4041847 -0.46122083 -0.33611193
